{"format": "graph-model", "generatedBy": "2.11.0", "convertedBy": "TensorFlow.js Converter v3.19.0", "signature": {"inputs": {"input": {"name": "input:0", "dtype": "DT_FLOAT", "tensorShape": {"dim": [{"size": "-1"}, {"size": "4"}, {"size": "15"}, {"size": "15"}]}}}, "outputs": {"evaluation_fc2": {"name": "Identity_1:0", "dtype": "DT_FLOAT", "tensorShape": {"dim": [{"size": "-1"}, {"size": "1"}]}}, "action_fc": {"name": "Identity:0", "dtype": "DT_FLOAT", "tensorShape": {"dim": [{"size": "-1"}, {"size": "225"}]}}}}, "modelTopology": {"node": [{"name": "StatefulPartitionedCall/renju_model/action_flatten/Const", "op": "Const", "attr": {"dtype": {"type": "DT_INT32"}, "value": {"tensor": {"dtype": "DT_INT32", "tensorShape": {"dim": [{"size": "2"}]}}}}}, {"name": "StatefulPartitionedCall/renju_model/action_fc/MatMul/ReadVariableOp", "op": "Const", "attr": {"dtype": {"type": "DT_FLOAT"}, "value": {"tensor": {"dtype": "DT_FLOAT", "tensorShape": {"dim": [{"size": "450"}, {"size": "225"}]}}}}}, {"name": "StatefulPartitionedCall/renju_model/action_fc/BiasAdd/ReadVariableOp", "op": "Const", "attr": {"dtype": {"type": "DT_FLOAT"}, "value": {"tensor": {"dtype": "DT_FLOAT", "tensorShape": {"dim": [{"size": "225"}]}}}}}, {"name": "StatefulPartitionedCall/renju_model/permute/transpose/perm", "op": "Const", "attr": {"dtype": {"type": "DT_INT32"}, "value": {"tensor": {"dtype": "DT_INT32", "tensorShape": {"dim": [{"size": "4"}]}}}}}, {"name": "StatefulPartitionedCall/renju_model/conv1/Conv2D/ReadVariableOp", "op": "Const", "attr": {"dtype": {"type": "DT_FLOAT"}, "value": {"tensor": {"dtype": "DT_FLOAT", "tensorShape": {"dim": [{"size": "3"}, {"size": "3"}, {"size": "4"}, {"size": "64"}]}}}}}, {"name": "StatefulPartitionedCall/renju_model/conv1/BiasAdd/ReadVariableOp", "op": "Const", "attr": {"dtype": {"type": "DT_FLOAT"}, "value": {"tensor": {"dtype": "DT_FLOAT", "tensorShape": {"dim": [{"size": "64"}]}}}}}, {"name": "StatefulPartitionedCall/renju_model/evaluation_flatten/Const", "op": "Const", "attr": {"dtype": {"type": "DT_INT32"}, "value": {"tensor": {"dtype": "DT_INT32", "tensorShape": {"dim": [{"size": "2"}]}}}}}, {"name": "StatefulPartitionedCall/renju_model/evaluation_fc1/MatMul/ReadVariableOp", "op": "Const", "attr": {"dtype": {"type": "DT_FLOAT"}, "value": {"tensor": {"dtype": "DT_FLOAT", "tensorShape": {"dim": [{"size": "225"}, {"size": "256"}]}}}}}, {"name": "StatefulPartitionedCall/renju_model/evaluation_fc1/BiasAdd/ReadVariableOp", "op": "Const", "attr": {"dtype": {"type": "DT_FLOAT"}, "value": {"tensor": {"dtype": "DT_FLOAT", "tensorShape": {"dim": [{"size": "256"}]}}}}}, {"name": "StatefulPartitionedCall/renju_model/evaluation_fc2/MatMul/ReadVariableOp", "op": "Const", "attr": {"dtype": {"type": "DT_FLOAT"}, "value": {"tensor": {"dtype": "DT_FLOAT", "tensorShape": {"dim": [{"size": "256"}, {"size": "1"}]}}}}}, {"name": "StatefulPartitionedCall/renju_model/evaluation_fc2/BiasAdd/ReadVariableOp", "op": "Const", "attr": {"dtype": {"type": "DT_FLOAT"}, "value": {"tensor": {"dtype": "DT_FLOAT", "tensorShape": {"dim": [{"size": "1"}]}}}}}, {"name": "input", "op": "Placeholder", "attr": {"dtype": {"type": "DT_FLOAT"}, "shape": {"shape": {"dim": [{"size": "-1"}, {"size": "4"}, {"size": "15"}, {"size": "15"}]}}}}, {"name": "StatefulPartitionedCall/renju_model/resblocks/res_block/conv2d/Conv2D_weights", "op": "Const", "attr": {"dtype": {"type": "DT_FLOAT"}, "value": {"tensor": {"dtype": "DT_FLOAT", "tensorShape": {"dim": [{"size": "3"}, {"size": "3"}, {"size": "64"}, {"size": "64"}]}}}}}, {"name": "StatefulPartitionedCall/renju_model/resblocks/res_block_15/conv2d_30/Conv2D_bn_offset", "op": "Const", "attr": {"dtype": {"type": "DT_FLOAT"}, "value": {"tensor": {"dtype": "DT_FLOAT", "tensorShape": {"dim": [{"size": "64"}]}}}}}, {"name": "StatefulPartitionedCall/renju_model/resblocks/res_block/conv2d/Conv2D_bn_offset", "op": "Const", "attr": {"dtype": {"type": "DT_FLOAT"}, "value": {"tensor": {"dtype": "DT_FLOAT", "tensorShape": {"dim": [{"size": "64"}]}}}}}, {"name": "StatefulPartitionedCall/renju_model/resblocks/res_block/conv2d_1/Conv2D_weights", "op": "Const", "attr": {"dtype": {"type": "DT_FLOAT"}, "value": {"tensor": {"dtype": "DT_FLOAT", "tensorShape": {"dim": [{"size": "3"}, {"size": "3"}, {"size": "64"}, {"size": "64"}]}}}}}, {"name": "StatefulPartitionedCall/renju_model/resblocks/res_block/conv2d_1/Conv2D_bn_offset", "op": "Const", "attr": {"dtype": {"type": "DT_FLOAT"}, "value": {"tensor": {"dtype": "DT_FLOAT", "tensorShape": {"dim": [{"size": "64"}]}}}}}, {"name": "StatefulPartitionedCall/renju_model/resblocks/res_block_1/conv2d_2/Conv2D_weights", "op": "Const", "attr": {"dtype": {"type": "DT_FLOAT"}, "value": {"tensor": {"dtype": "DT_FLOAT", "tensorShape": {"dim": [{"size": "3"}, {"size": "3"}, {"size": "64"}, {"size": "64"}]}}}}}, {"name": "StatefulPartitionedCall/renju_model/resblocks/res_block_15/conv2d_31/Conv2D_weights", "op": "Const", "attr": {"dtype": {"type": "DT_FLOAT"}, "value": {"tensor": {"dtype": "DT_FLOAT", "tensorShape": {"dim": [{"size": "3"}, {"size": "3"}, {"size": "64"}, {"size": "64"}]}}}}}, {"name": "StatefulPartitionedCall/renju_model/resblocks/res_block_1/conv2d_2/Conv2D_bn_offset", "op": "Const", "attr": {"dtype": {"type": "DT_FLOAT"}, "value": {"tensor": {"dtype": "DT_FLOAT", "tensorShape": {"dim": [{"size": "64"}]}}}}}, {"name": "StatefulPartitionedCall/renju_model/resblocks/res_block_1/conv2d_3/Conv2D_weights", "op": "Const", "attr": {"dtype": {"type": "DT_FLOAT"}, "value": {"tensor": {"dtype": "DT_FLOAT", "tensorShape": {"dim": [{"size": "3"}, {"size": "3"}, {"size": "64"}, {"size": "64"}]}}}}}, {"name": "StatefulPartitionedCall/renju_model/resblocks/res_block_15/conv2d_31/Conv2D_bn_offset", "op": "Const", "attr": {"dtype": {"type": "DT_FLOAT"}, "value": {"tensor": {"dtype": "DT_FLOAT", "tensorShape": {"dim": [{"size": "64"}]}}}}}, {"name": "StatefulPartitionedCall/renju_model/resblocks/res_block_1/conv2d_3/Conv2D_bn_offset", "op": "Const", "attr": {"dtype": {"type": "DT_FLOAT"}, "value": {"tensor": {"dtype": "DT_FLOAT", "tensorShape": {"dim": [{"size": "64"}]}}}}}, {"name": "StatefulPartitionedCall/renju_model/resblocks/res_block_2/conv2d_4/Conv2D_weights", "op": "Const", "attr": {"dtype": {"type": "DT_FLOAT"}, "value": {"tensor": {"dtype": "DT_FLOAT", "tensorShape": {"dim": [{"size": "3"}, {"size": "3"}, {"size": "64"}, {"size": "64"}]}}}}}, {"name": "StatefulPartitionedCall/renju_model/resblocks/res_block_2/conv2d_4/Conv2D_bn_offset", "op": "Const", "attr": {"dtype": {"type": "DT_FLOAT"}, "value": {"tensor": {"dtype": "DT_FLOAT", "tensorShape": {"dim": [{"size": "64"}]}}}}}, {"name": "StatefulPartitionedCall/renju_model/resblocks/res_block_2/conv2d_5/Conv2D_weights", "op": "Const", "attr": {"dtype": {"type": "DT_FLOAT"}, "value": {"tensor": {"dtype": "DT_FLOAT", "tensorShape": {"dim": [{"size": "3"}, {"size": "3"}, {"size": "64"}, {"size": "64"}]}}}}}, {"name": "StatefulPartitionedCall/renju_model/resblocks/res_block_2/conv2d_5/Conv2D_bn_offset", "op": "Const", "attr": {"dtype": {"type": "DT_FLOAT"}, "value": {"tensor": {"dtype": "DT_FLOAT", "tensorShape": {"dim": [{"size": "64"}]}}}}}, {"name": "StatefulPartitionedCall/renju_model/resblocks/res_block_3/conv2d_6/Conv2D_weights", "op": "Const", "attr": {"dtype": {"type": "DT_FLOAT"}, "value": {"tensor": {"dtype": "DT_FLOAT", "tensorShape": {"dim": [{"size": "3"}, {"size": "3"}, {"size": "64"}, {"size": "64"}]}}}}}, {"name": "StatefulPartitionedCall/renju_model/resblocks/res_block_16/conv2d_32/Conv2D_weights", "op": "Const", "attr": {"dtype": {"type": "DT_FLOAT"}, "value": {"tensor": {"dtype": "DT_FLOAT", "tensorShape": {"dim": [{"size": "3"}, {"size": "3"}, {"size": "64"}, {"size": "64"}]}}}}}, {"name": "StatefulPartitionedCall/renju_model/resblocks/res_block_3/conv2d_6/Conv2D_bn_offset", "op": "Const", "attr": {"dtype": {"type": "DT_FLOAT"}, "value": {"tensor": {"dtype": "DT_FLOAT", "tensorShape": {"dim": [{"size": "64"}]}}}}}, {"name": "StatefulPartitionedCall/renju_model/resblocks/res_block_3/conv2d_7/Conv2D_weights", "op": "Const", "attr": {"dtype": {"type": "DT_FLOAT"}, "value": {"tensor": {"dtype": "DT_FLOAT", "tensorShape": {"dim": [{"size": "3"}, {"size": "3"}, {"size": "64"}, {"size": "64"}]}}}}}, {"name": "StatefulPartitionedCall/renju_model/resblocks/res_block_16/conv2d_32/Conv2D_bn_offset", "op": "Const", "attr": {"dtype": {"type": "DT_FLOAT"}, "value": {"tensor": {"dtype": "DT_FLOAT", "tensorShape": {"dim": [{"size": "64"}]}}}}}, {"name": "StatefulPartitionedCall/renju_model/resblocks/res_block_3/conv2d_7/Conv2D_bn_offset", "op": "Const", "attr": {"dtype": {"type": "DT_FLOAT"}, "value": {"tensor": {"dtype": "DT_FLOAT", "tensorShape": {"dim": [{"size": "64"}]}}}}}, {"name": "StatefulPartitionedCall/renju_model/resblocks/res_block_4/conv2d_8/Conv2D_weights", "op": "Const", "attr": {"dtype": {"type": "DT_FLOAT"}, "value": {"tensor": {"dtype": "DT_FLOAT", "tensorShape": {"dim": [{"size": "3"}, {"size": "3"}, {"size": "64"}, {"size": "64"}]}}}}}, {"name": "StatefulPartitionedCall/renju_model/resblocks/res_block_4/conv2d_8/Conv2D_bn_offset", "op": "Const", "attr": {"dtype": {"type": "DT_FLOAT"}, "value": {"tensor": {"dtype": "DT_FLOAT", "tensorShape": {"dim": [{"size": "64"}]}}}}}, {"name": "StatefulPartitionedCall/renju_model/resblocks/res_block_4/conv2d_9/Conv2D_weights", "op": "Const", "attr": {"dtype": {"type": "DT_FLOAT"}, "value": {"tensor": {"dtype": "DT_FLOAT", "tensorShape": {"dim": [{"size": "3"}, {"size": "3"}, {"size": "64"}, {"size": "64"}]}}}}}, {"name": "StatefulPartitionedCall/renju_model/resblocks/res_block_16/conv2d_33/Conv2D_weights", "op": "Const", "attr": {"dtype": {"type": "DT_FLOAT"}, "value": {"tensor": {"dtype": "DT_FLOAT", "tensorShape": {"dim": [{"size": "3"}, {"size": "3"}, {"size": "64"}, {"size": "64"}]}}}}}, {"name": "StatefulPartitionedCall/renju_model/resblocks/res_block_4/conv2d_9/Conv2D_bn_offset", "op": "Const", "attr": {"dtype": {"type": "DT_FLOAT"}, "value": {"tensor": {"dtype": "DT_FLOAT", "tensorShape": {"dim": [{"size": "64"}]}}}}}, {"name": "StatefulPartitionedCall/renju_model/resblocks/res_block_5/conv2d_10/Conv2D_weights", "op": "Const", "attr": {"dtype": {"type": "DT_FLOAT"}, "value": {"tensor": {"dtype": "DT_FLOAT", "tensorShape": {"dim": [{"size": "3"}, {"size": "3"}, {"size": "64"}, {"size": "64"}]}}}}}, {"name": "StatefulPartitionedCall/renju_model/resblocks/res_block_5/conv2d_10/Conv2D_bn_offset", "op": "Const", "attr": {"value": {"tensor": {"dtype": "DT_FLOAT", "tensorShape": {"dim": [{"size": "64"}]}}}, "dtype": {"type": "DT_FLOAT"}}}, {"name": "StatefulPartitionedCall/renju_model/resblocks/res_block_16/conv2d_33/Conv2D_bn_offset", "op": "Const", "attr": {"dtype": {"type": "DT_FLOAT"}, "value": {"tensor": {"dtype": "DT_FLOAT", "tensorShape": {"dim": [{"size": "64"}]}}}}}, {"name": "StatefulPartitionedCall/renju_model/resblocks/res_block_5/conv2d_11/Conv2D_weights", "op": "Const", "attr": {"dtype": {"type": "DT_FLOAT"}, "value": {"tensor": {"dtype": "DT_FLOAT", "tensorShape": {"dim": [{"size": "3"}, {"size": "3"}, {"size": "64"}, {"size": "64"}]}}}}}, {"name": "StatefulPartitionedCall/renju_model/resblocks/res_block_5/conv2d_11/Conv2D_bn_offset", "op": "Const", "attr": {"value": {"tensor": {"dtype": "DT_FLOAT", "tensorShape": {"dim": [{"size": "64"}]}}}, "dtype": {"type": "DT_FLOAT"}}}, {"name": "StatefulPartitionedCall/renju_model/resblocks/res_block_6/conv2d_12/Conv2D_weights", "op": "Const", "attr": {"value": {"tensor": {"dtype": "DT_FLOAT", "tensorShape": {"dim": [{"size": "3"}, {"size": "3"}, {"size": "64"}, {"size": "64"}]}}}, "dtype": {"type": "DT_FLOAT"}}}, {"name": "StatefulPartitionedCall/renju_model/resblocks/res_block_6/conv2d_12/Conv2D_bn_offset", "op": "Const", "attr": {"value": {"tensor": {"dtype": "DT_FLOAT", "tensorShape": {"dim": [{"size": "64"}]}}}, "dtype": {"type": "DT_FLOAT"}}}, {"name": "StatefulPartitionedCall/renju_model/resblocks/res_block_6/conv2d_13/Conv2D_weights", "op": "Const", "attr": {"value": {"tensor": {"dtype": "DT_FLOAT", "tensorShape": {"dim": [{"size": "3"}, {"size": "3"}, {"size": "64"}, {"size": "64"}]}}}, "dtype": {"type": "DT_FLOAT"}}}, {"name": "StatefulPartitionedCall/renju_model/resblocks/res_block_17/conv2d_34/Conv2D_weights", "op": "Const", "attr": {"dtype": {"type": "DT_FLOAT"}, "value": {"tensor": {"dtype": "DT_FLOAT", "tensorShape": {"dim": [{"size": "3"}, {"size": "3"}, {"size": "64"}, {"size": "64"}]}}}}}, {"name": "StatefulPartitionedCall/renju_model/resblocks/res_block_6/conv2d_13/Conv2D_bn_offset", "op": "Const", "attr": {"dtype": {"type": "DT_FLOAT"}, "value": {"tensor": {"dtype": "DT_FLOAT", "tensorShape": {"dim": [{"size": "64"}]}}}}}, {"name": "StatefulPartitionedCall/renju_model/resblocks/res_block_7/conv2d_14/Conv2D_weights", "op": "Const", "attr": {"dtype": {"type": "DT_FLOAT"}, "value": {"tensor": {"dtype": "DT_FLOAT", "tensorShape": {"dim": [{"size": "3"}, {"size": "3"}, {"size": "64"}, {"size": "64"}]}}}}}, {"name": "StatefulPartitionedCall/renju_model/resblocks/res_block_7/conv2d_14/Conv2D_bn_offset", "op": "Const", "attr": {"dtype": {"type": "DT_FLOAT"}, "value": {"tensor": {"dtype": "DT_FLOAT", "tensorShape": {"dim": [{"size": "64"}]}}}}}, {"name": "StatefulPartitionedCall/renju_model/resblocks/res_block_17/conv2d_34/Conv2D_bn_offset", "op": "Const", "attr": {"dtype": {"type": "DT_FLOAT"}, "value": {"tensor": {"dtype": "DT_FLOAT", "tensorShape": {"dim": [{"size": "64"}]}}}}}, {"name": "StatefulPartitionedCall/renju_model/resblocks/res_block_7/conv2d_15/Conv2D_weights", "op": "Const", "attr": {"dtype": {"type": "DT_FLOAT"}, "value": {"tensor": {"dtype": "DT_FLOAT", "tensorShape": {"dim": [{"size": "3"}, {"size": "3"}, {"size": "64"}, {"size": "64"}]}}}}}, {"name": "StatefulPartitionedCall/renju_model/evaluation_conv/Conv2D_weights", "op": "Const", "attr": {"dtype": {"type": "DT_FLOAT"}, "value": {"tensor": {"dtype": "DT_FLOAT", "tensorShape": {"dim": [{"size": "1"}, {"size": "1"}, {"size": "64"}, {"size": "1"}]}}}}}, {"name": "StatefulPartitionedCall/renju_model/resblocks/res_block_7/conv2d_15/Conv2D_bn_offset", "op": "Const", "attr": {"dtype": {"type": "DT_FLOAT"}, "value": {"tensor": {"dtype": "DT_FLOAT", "tensorShape": {"dim": [{"size": "64"}]}}}}}, {"name": "StatefulPartitionedCall/renju_model/resblocks/res_block_8/conv2d_16/Conv2D_weights", "op": "Const", "attr": {"dtype": {"type": "DT_FLOAT"}, "value": {"tensor": {"dtype": "DT_FLOAT", "tensorShape": {"dim": [{"size": "3"}, {"size": "3"}, {"size": "64"}, {"size": "64"}]}}}}}, {"name": "StatefulPartitionedCall/renju_model/resblocks/res_block_8/conv2d_16/Conv2D_bn_offset", "op": "Const", "attr": {"dtype": {"type": "DT_FLOAT"}, "value": {"tensor": {"dtype": "DT_FLOAT", "tensorShape": {"dim": [{"size": "64"}]}}}}}, {"name": "StatefulPartitionedCall/renju_model/resblocks/res_block_17/conv2d_35/Conv2D_weights", "op": "Const", "attr": {"dtype": {"type": "DT_FLOAT"}, "value": {"tensor": {"dtype": "DT_FLOAT", "tensorShape": {"dim": [{"size": "3"}, {"size": "3"}, {"size": "64"}, {"size": "64"}]}}}}}, {"name": "StatefulPartitionedCall/renju_model/resblocks/res_block_8/conv2d_17/Conv2D_weights", "op": "Const", "attr": {"value": {"tensor": {"dtype": "DT_FLOAT", "tensorShape": {"dim": [{"size": "3"}, {"size": "3"}, {"size": "64"}, {"size": "64"}]}}}, "dtype": {"type": "DT_FLOAT"}}}, {"name": "StatefulPartitionedCall/renju_model/resblocks/res_block_8/conv2d_17/Conv2D_bn_offset", "op": "Const", "attr": {"value": {"tensor": {"dtype": "DT_FLOAT", "tensorShape": {"dim": [{"size": "64"}]}}}, "dtype": {"type": "DT_FLOAT"}}}, {"name": "StatefulPartitionedCall/renju_model/resblocks/res_block_9/conv2d_18/Conv2D_weights", "op": "Const", "attr": {"dtype": {"type": "DT_FLOAT"}, "value": {"tensor": {"dtype": "DT_FLOAT", "tensorShape": {"dim": [{"size": "3"}, {"size": "3"}, {"size": "64"}, {"size": "64"}]}}}}}, {"name": "StatefulPartitionedCall/renju_model/resblocks/res_block_17/conv2d_35/Conv2D_bn_offset", "op": "Const", "attr": {"dtype": {"type": "DT_FLOAT"}, "value": {"tensor": {"dtype": "DT_FLOAT", "tensorShape": {"dim": [{"size": "64"}]}}}}}, {"name": "StatefulPartitionedCall/renju_model/resblocks/res_block_9/conv2d_18/Conv2D_bn_offset", "op": "Const", "attr": {"dtype": {"type": "DT_FLOAT"}, "value": {"tensor": {"dtype": "DT_FLOAT", "tensorShape": {"dim": [{"size": "64"}]}}}}}, {"name": "StatefulPartitionedCall/renju_model/resblocks/res_block_9/conv2d_19/Conv2D_weights", "op": "Const", "attr": {"value": {"tensor": {"dtype": "DT_FLOAT", "tensorShape": {"dim": [{"size": "3"}, {"size": "3"}, {"size": "64"}, {"size": "64"}]}}}, "dtype": {"type": "DT_FLOAT"}}}, {"name": "StatefulPartitionedCall/renju_model/resblocks/res_block_9/conv2d_19/Conv2D_bn_offset", "op": "Const", "attr": {"dtype": {"type": "DT_FLOAT"}, "value": {"tensor": {"dtype": "DT_FLOAT", "tensorShape": {"dim": [{"size": "64"}]}}}}}, {"name": "StatefulPartitionedCall/renju_model/resblocks/res_block_10/conv2d_20/Conv2D_weights", "op": "Const", "attr": {"dtype": {"type": "DT_FLOAT"}, "value": {"tensor": {"dtype": "DT_FLOAT", "tensorShape": {"dim": [{"size": "3"}, {"size": "3"}, {"size": "64"}, {"size": "64"}]}}}}}, {"name": "StatefulPartitionedCall/renju_model/resblocks/res_block_10/conv2d_20/Conv2D_bn_offset", "op": "Const", "attr": {"dtype": {"type": "DT_FLOAT"}, "value": {"tensor": {"dtype": "DT_FLOAT", "tensorShape": {"dim": [{"size": "64"}]}}}}}, {"name": "StatefulPartitionedCall/renju_model/resblocks/res_block_18/conv2d_36/Conv2D_weights", "op": "Const", "attr": {"dtype": {"type": "DT_FLOAT"}, "value": {"tensor": {"dtype": "DT_FLOAT", "tensorShape": {"dim": [{"size": "3"}, {"size": "3"}, {"size": "64"}, {"size": "64"}]}}}}}, {"name": "StatefulPartitionedCall/renju_model/resblocks/res_block_10/conv2d_21/Conv2D_weights", "op": "Const", "attr": {"dtype": {"type": "DT_FLOAT"}, "value": {"tensor": {"dtype": "DT_FLOAT", "tensorShape": {"dim": [{"size": "3"}, {"size": "3"}, {"size": "64"}, {"size": "64"}]}}}}}, {"name": "StatefulPartitionedCall/renju_model/evaluation_conv/Conv2D_bn_offset", "op": "Const", "attr": {"dtype": {"type": "DT_FLOAT"}, "value": {"tensor": {"dtype": "DT_FLOAT", "tensorShape": {"dim": [{"size": "1"}]}}}}}, {"name": "StatefulPartitionedCall/renju_model/resblocks/res_block_10/conv2d_21/Conv2D_bn_offset", "op": "Const", "attr": {"dtype": {"type": "DT_FLOAT"}, "value": {"tensor": {"dtype": "DT_FLOAT", "tensorShape": {"dim": [{"size": "64"}]}}}}}, {"name": "StatefulPartitionedCall/renju_model/resblocks/res_block_11/conv2d_22/Conv2D_weights", "op": "Const", "attr": {"dtype": {"type": "DT_FLOAT"}, "value": {"tensor": {"dtype": "DT_FLOAT", "tensorShape": {"dim": [{"size": "3"}, {"size": "3"}, {"size": "64"}, {"size": "64"}]}}}}}, {"name": "StatefulPartitionedCall/renju_model/resblocks/res_block_18/conv2d_36/Conv2D_bn_offset", "op": "Const", "attr": {"dtype": {"type": "DT_FLOAT"}, "value": {"tensor": {"dtype": "DT_FLOAT", "tensorShape": {"dim": [{"size": "64"}]}}}}}, {"name": "StatefulPartitionedCall/renju_model/resblocks/res_block_11/conv2d_22/Conv2D_bn_offset", "op": "Const", "attr": {"dtype": {"type": "DT_FLOAT"}, "value": {"tensor": {"dtype": "DT_FLOAT", "tensorShape": {"dim": [{"size": "64"}]}}}}}, {"name": "StatefulPartitionedCall/renju_model/resblocks/res_block_11/conv2d_23/Conv2D_weights", "op": "Const", "attr": {"dtype": {"type": "DT_FLOAT"}, "value": {"tensor": {"dtype": "DT_FLOAT", "tensorShape": {"dim": [{"size": "3"}, {"size": "3"}, {"size": "64"}, {"size": "64"}]}}}}}, {"name": "StatefulPartitionedCall/renju_model/resblocks/res_block_11/conv2d_23/Conv2D_bn_offset", "op": "Const", "attr": {"dtype": {"type": "DT_FLOAT"}, "value": {"tensor": {"dtype": "DT_FLOAT", "tensorShape": {"dim": [{"size": "64"}]}}}}}, {"name": "StatefulPartitionedCall/renju_model/resblocks/res_block_12/conv2d_24/Conv2D_weights", "op": "Const", "attr": {"value": {"tensor": {"dtype": "DT_FLOAT", "tensorShape": {"dim": [{"size": "3"}, {"size": "3"}, {"size": "64"}, {"size": "64"}]}}}, "dtype": {"type": "DT_FLOAT"}}}, {"name": "StatefulPartitionedCall/renju_model/resblocks/res_block_18/conv2d_37/Conv2D_weights", "op": "Const", "attr": {"dtype": {"type": "DT_FLOAT"}, "value": {"tensor": {"dtype": "DT_FLOAT", "tensorShape": {"dim": [{"size": "3"}, {"size": "3"}, {"size": "64"}, {"size": "64"}]}}}}}, {"name": "StatefulPartitionedCall/renju_model/resblocks/res_block_12/conv2d_24/Conv2D_bn_offset", "op": "Const", "attr": {"dtype": {"type": "DT_FLOAT"}, "value": {"tensor": {"dtype": "DT_FLOAT", "tensorShape": {"dim": [{"size": "64"}]}}}}}, {"name": "StatefulPartitionedCall/renju_model/resblocks/res_block_12/conv2d_25/Conv2D_weights", "op": "Const", "attr": {"dtype": {"type": "DT_FLOAT"}, "value": {"tensor": {"dtype": "DT_FLOAT", "tensorShape": {"dim": [{"size": "3"}, {"size": "3"}, {"size": "64"}, {"size": "64"}]}}}}}, {"name": "StatefulPartitionedCall/renju_model/resblocks/res_block_18/conv2d_37/Conv2D_bn_offset", "op": "Const", "attr": {"dtype": {"type": "DT_FLOAT"}, "value": {"tensor": {"dtype": "DT_FLOAT", "tensorShape": {"dim": [{"size": "64"}]}}}}}, {"name": "StatefulPartitionedCall/renju_model/resblocks/res_block_12/conv2d_25/Conv2D_bn_offset", "op": "Const", "attr": {"value": {"tensor": {"dtype": "DT_FLOAT", "tensorShape": {"dim": [{"size": "64"}]}}}, "dtype": {"type": "DT_FLOAT"}}}, {"name": "StatefulPartitionedCall/renju_model/resblocks/res_block_13/conv2d_26/Conv2D_weights", "op": "Const", "attr": {"value": {"tensor": {"dtype": "DT_FLOAT", "tensorShape": {"dim": [{"size": "3"}, {"size": "3"}, {"size": "64"}, {"size": "64"}]}}}, "dtype": {"type": "DT_FLOAT"}}}, {"name": "StatefulPartitionedCall/renju_model/resblocks/res_block_13/conv2d_26/Conv2D_bn_offset", "op": "Const", "attr": {"dtype": {"type": "DT_FLOAT"}, "value": {"tensor": {"dtype": "DT_FLOAT", "tensorShape": {"dim": [{"size": "64"}]}}}}}, {"name": "StatefulPartitionedCall/renju_model/resblocks/res_block_13/conv2d_27/Conv2D_weights", "op": "Const", "attr": {"value": {"tensor": {"dtype": "DT_FLOAT", "tensorShape": {"dim": [{"size": "3"}, {"size": "3"}, {"size": "64"}, {"size": "64"}]}}}, "dtype": {"type": "DT_FLOAT"}}}, {"name": "StatefulPartitionedCall/renju_model/resblocks/res_block_13/conv2d_27/Conv2D_bn_offset", "op": "Const", "attr": {"dtype": {"type": "DT_FLOAT"}, "value": {"tensor": {"dtype": "DT_FLOAT", "tensorShape": {"dim": [{"size": "64"}]}}}}}, {"name": "StatefulPartitionedCall/renju_model/resblocks/res_block_14/conv2d_28/Conv2D_weights", "op": "Const", "attr": {"value": {"tensor": {"dtype": "DT_FLOAT", "tensorShape": {"dim": [{"size": "3"}, {"size": "3"}, {"size": "64"}, {"size": "64"}]}}}, "dtype": {"type": "DT_FLOAT"}}}, {"name": "StatefulPartitionedCall/renju_model/action_conv/Conv2D_weights", "op": "Const", "attr": {"value": {"tensor": {"dtype": "DT_FLOAT", "tensorShape": {"dim": [{"size": "1"}, {"size": "1"}, {"size": "64"}, {"size": "2"}]}}}, "dtype": {"type": "DT_FLOAT"}}}, {"name": "StatefulPartitionedCall/renju_model/resblocks/res_block_14/conv2d_28/Conv2D_bn_offset", "op": "Const", "attr": {"value": {"tensor": {"dtype": "DT_FLOAT", "tensorShape": {"dim": [{"size": "64"}]}}}, "dtype": {"type": "DT_FLOAT"}}}, {"name": "StatefulPartitionedCall/renju_model/resblocks/res_block_14/conv2d_29/Conv2D_weights", "op": "Const", "attr": {"value": {"tensor": {"dtype": "DT_FLOAT", "tensorShape": {"dim": [{"size": "3"}, {"size": "3"}, {"size": "64"}, {"size": "64"}]}}}, "dtype": {"type": "DT_FLOAT"}}}, {"name": "StatefulPartitionedCall/renju_model/action_conv/Conv2D_bn_offset", "op": "Const", "attr": {"value": {"tensor": {"dtype": "DT_FLOAT", "tensorShape": {"dim": [{"size": "2"}]}}}, "dtype": {"type": "DT_FLOAT"}}}, {"name": "StatefulPartitionedCall/renju_model/resblocks/res_block_14/conv2d_29/Conv2D_bn_offset", "op": "Const", "attr": {"dtype": {"type": "DT_FLOAT"}, "value": {"tensor": {"dtype": "DT_FLOAT", "tensorShape": {"dim": [{"size": "64"}]}}}}}, {"name": "StatefulPartitionedCall/renju_model/resblocks/res_block_15/conv2d_30/Conv2D_weights", "op": "Const", "attr": {"dtype": {"type": "DT_FLOAT"}, "value": {"tensor": {"dtype": "DT_FLOAT", "tensorShape": {"dim": [{"size": "3"}, {"size": "3"}, {"size": "64"}, {"size": "64"}]}}}}}, {"name": "StatefulPartitionedCall/renju_model/permute/transpose", "op": "Transpose", "input": ["input", "StatefulPartitionedCall/renju_model/permute/transpose/perm"], "attr": {"T": {"type": "DT_FLOAT"}, "Tperm": {"type": "DT_INT32"}}}, {"name": "StatefulPartitionedCall/renju_model/conv1/BiasAdd", "op": "_FusedConv2D", "input": ["StatefulPartitionedCall/renju_model/permute/transpose", "StatefulPartitionedCall/renju_model/conv1/Conv2D/ReadVariableOp", "StatefulPartitionedCall/renju_model/conv1/BiasAdd/ReadVariableOp"], "device": "/device:CPU:0", "attr": {"filter_format": {"s": "SFdJTw=="}, "strides": {"list": {"i": ["1", "1", "1", "1"]}}, "leakyrelu_alpha": {"f": 0.2}, "dilations": {"list": {"i": ["1", "1", "1", "1"]}}, "num_host_args": {"i": "0"}, "epsilon": {"f": 0.0}, "T": {"type": "DT_FLOAT"}, "padding": {"s": "U0FNRQ=="}, "TArgs": {"list": {"type": ["DT_FLOAT"]}}, "data_format": {"s": "TkhXQw=="}, "num_args": {"i": "1"}, "fused_ops": {"list": {"s": ["Qmlhc0FkZA=="]}}, "explicit_paddings": {"list": {}}, "use_cudnn_on_gpu": {"b": true}}}, {"name": "StatefulPartitionedCall/renju_model/resblocks/res_block/re_lu/Relu", "op": "_FusedConv2D", "input": ["StatefulPartitionedCall/renju_model/conv1/BiasAdd", "StatefulPartitionedCall/renju_model/resblocks/res_block/conv2d/Conv2D_weights", "StatefulPartitionedCall/renju_model/resblocks/res_block/conv2d/Conv2D_bn_offset"], "device": "/device:CPU:0", "attr": {"epsilon": {"f": 0.0}, "leakyrelu_alpha": {"f": 0.2}, "TArgs": {"list": {"type": ["DT_FLOAT"]}}, "fused_ops": {"list": {"s": ["Qmlhc0FkZA==", "UmVsdQ=="]}}, "padding": {"s": "U0FNRQ=="}, "explicit_paddings": {"list": {}}, "T": {"type": "DT_FLOAT"}, "num_host_args": {"i": "0"}, "dilations": {"list": {"i": ["1", "1", "1", "1"]}}, "num_args": {"i": "1"}, "filter_format": {"s": "SFdJTw=="}, "data_format": {"s": "TkhXQw=="}, "strides": {"list": {"i": ["1", "1", "1", "1"]}}, "use_cudnn_on_gpu": {"b": true}}}, {"name": "StatefulPartitionedCall/renju_model/resblocks/res_block/batch_normalization_1/FusedBatchNormV3", "op": "_FusedConv2D", "input": ["StatefulPartitionedCall/renju_model/resblocks/res_block/re_lu/Relu", "StatefulPartitionedCall/renju_model/resblocks/res_block/conv2d_1/Conv2D_weights", "StatefulPartitionedCall/renju_model/resblocks/res_block/conv2d_1/Conv2D_bn_offset"], "device": "/device:CPU:0", "attr": {"explicit_paddings": {"list": {}}, "use_cudnn_on_gpu": {"b": true}, "strides": {"list": {"i": ["1", "1", "1", "1"]}}, "padding": {"s": "U0FNRQ=="}, "TArgs": {"list": {"type": ["DT_FLOAT"]}}, "dilations": {"list": {"i": ["1", "1", "1", "1"]}}, "fused_ops": {"list": {"s": ["Qmlhc0FkZA=="]}}, "data_format": {"s": "TkhXQw=="}, "leakyrelu_alpha": {"f": 0.2}, "num_host_args": {"i": "0"}, "T": {"type": "DT_FLOAT"}, "num_args": {"i": "1"}, "filter_format": {"s": "SFdJTw=="}, "epsilon": {"f": 0.0}}}, {"name": "StatefulPartitionedCall/renju_model/resblocks/res_block/add", "op": "AddV2", "input": ["StatefulPartitionedCall/renju_model/resblocks/res_block/batch_normalization_1/FusedBatchNormV3", "StatefulPartitionedCall/renju_model/conv1/BiasAdd"], "attr": {"T": {"type": "DT_FLOAT"}}}, {"name": "StatefulPartitionedCall/renju_model/resblocks/res_block/re_lu_1/Relu", "op": "Relu", "input": ["StatefulPartitionedCall/renju_model/resblocks/res_block/add"], "attr": {"T": {"type": "DT_FLOAT"}}}, {"name": "StatefulPartitionedCall/renju_model/resblocks/res_block_1/re_lu_2/Relu", "op": "_FusedConv2D", "input": ["StatefulPartitionedCall/renju_model/resblocks/res_block/re_lu_1/Relu", "StatefulPartitionedCall/renju_model/resblocks/res_block_1/conv2d_2/Conv2D_weights", "StatefulPartitionedCall/renju_model/resblocks/res_block_1/conv2d_2/Conv2D_bn_offset"], "device": "/device:CPU:0", "attr": {"T": {"type": "DT_FLOAT"}, "TArgs": {"list": {"type": ["DT_FLOAT"]}}, "fused_ops": {"list": {"s": ["Qmlhc0FkZA==", "UmVsdQ=="]}}, "data_format": {"s": "TkhXQw=="}, "num_host_args": {"i": "0"}, "filter_format": {"s": "SFdJTw=="}, "num_args": {"i": "1"}, "dilations": {"list": {"i": ["1", "1", "1", "1"]}}, "use_cudnn_on_gpu": {"b": true}, "epsilon": {"f": 0.0}, "explicit_paddings": {"list": {}}, "strides": {"list": {"i": ["1", "1", "1", "1"]}}, "leakyrelu_alpha": {"f": 0.2}, "padding": {"s": "U0FNRQ=="}}}, {"name": "StatefulPartitionedCall/renju_model/resblocks/res_block_1/batch_normalization_3/FusedBatchNormV3", "op": "_FusedConv2D", "input": ["StatefulPartitionedCall/renju_model/resblocks/res_block_1/re_lu_2/Relu", "StatefulPartitionedCall/renju_model/resblocks/res_block_1/conv2d_3/Conv2D_weights", "StatefulPartitionedCall/renju_model/resblocks/res_block_1/conv2d_3/Conv2D_bn_offset"], "device": "/device:CPU:0", "attr": {"padding": {"s": "U0FNRQ=="}, "data_format": {"s": "TkhXQw=="}, "num_args": {"i": "1"}, "TArgs": {"list": {"type": ["DT_FLOAT"]}}, "fused_ops": {"list": {"s": ["Qmlhc0FkZA=="]}}, "explicit_paddings": {"list": {}}, "use_cudnn_on_gpu": {"b": true}, "filter_format": {"s": "SFdJTw=="}, "strides": {"list": {"i": ["1", "1", "1", "1"]}}, "leakyrelu_alpha": {"f": 0.2}, "dilations": {"list": {"i": ["1", "1", "1", "1"]}}, "epsilon": {"f": 0.0}, "num_host_args": {"i": "0"}, "T": {"type": "DT_FLOAT"}}}, {"name": "StatefulPartitionedCall/renju_model/resblocks/res_block_1/add", "op": "AddV2", "input": ["StatefulPartitionedCall/renju_model/resblocks/res_block_1/batch_normalization_3/FusedBatchNormV3", "StatefulPartitionedCall/renju_model/resblocks/res_block/re_lu_1/Relu"], "attr": {"T": {"type": "DT_FLOAT"}}}, {"name": "StatefulPartitionedCall/renju_model/resblocks/res_block_1/re_lu_3/Relu", "op": "Relu", "input": ["StatefulPartitionedCall/renju_model/resblocks/res_block_1/add"], "attr": {"T": {"type": "DT_FLOAT"}}}, {"name": "StatefulPartitionedCall/renju_model/resblocks/res_block_2/re_lu_4/Relu", "op": "_FusedConv2D", "input": ["StatefulPartitionedCall/renju_model/resblocks/res_block_1/re_lu_3/Relu", "StatefulPartitionedCall/renju_model/resblocks/res_block_2/conv2d_4/Conv2D_weights", "StatefulPartitionedCall/renju_model/resblocks/res_block_2/conv2d_4/Conv2D_bn_offset"], "device": "/device:CPU:0", "attr": {"fused_ops": {"list": {"s": ["Qmlhc0FkZA==", "UmVsdQ=="]}}, "padding": {"s": "U0FNRQ=="}, "explicit_paddings": {"list": {}}, "leakyrelu_alpha": {"f": 0.2}, "num_host_args": {"i": "0"}, "data_format": {"s": "TkhXQw=="}, "num_args": {"i": "1"}, "filter_format": {"s": "SFdJTw=="}, "strides": {"list": {"i": ["1", "1", "1", "1"]}}, "use_cudnn_on_gpu": {"b": true}, "T": {"type": "DT_FLOAT"}, "epsilon": {"f": 0.0}, "TArgs": {"list": {"type": ["DT_FLOAT"]}}, "dilations": {"list": {"i": ["1", "1", "1", "1"]}}}}, {"name": "StatefulPartitionedCall/renju_model/resblocks/res_block_2/batch_normalization_5/FusedBatchNormV3", "op": "_FusedConv2D", "input": ["StatefulPartitionedCall/renju_model/resblocks/res_block_2/re_lu_4/Relu", "StatefulPartitionedCall/renju_model/resblocks/res_block_2/conv2d_5/Conv2D_weights", "StatefulPartitionedCall/renju_model/resblocks/res_block_2/conv2d_5/Conv2D_bn_offset"], "device": "/device:CPU:0", "attr": {"leakyrelu_alpha": {"f": 0.2}, "T": {"type": "DT_FLOAT"}, "TArgs": {"list": {"type": ["DT_FLOAT"]}}, "data_format": {"s": "TkhXQw=="}, "fused_ops": {"list": {"s": ["Qmlhc0FkZA=="]}}, "dilations": {"list": {"i": ["1", "1", "1", "1"]}}, "num_args": {"i": "1"}, "strides": {"list": {"i": ["1", "1", "1", "1"]}}, "num_host_args": {"i": "0"}, "use_cudnn_on_gpu": {"b": true}, "filter_format": {"s": "SFdJTw=="}, "epsilon": {"f": 0.0}, "explicit_paddings": {"list": {}}, "padding": {"s": "U0FNRQ=="}}}, {"name": "StatefulPartitionedCall/renju_model/resblocks/res_block_2/add", "op": "AddV2", "input": ["StatefulPartitionedCall/renju_model/resblocks/res_block_2/batch_normalization_5/FusedBatchNormV3", "StatefulPartitionedCall/renju_model/resblocks/res_block_1/re_lu_3/Relu"], "attr": {"T": {"type": "DT_FLOAT"}}}, {"name": "StatefulPartitionedCall/renju_model/resblocks/res_block_2/re_lu_5/Relu", "op": "Relu", "input": ["StatefulPartitionedCall/renju_model/resblocks/res_block_2/add"], "attr": {"T": {"type": "DT_FLOAT"}}}, {"name": "StatefulPartitionedCall/renju_model/resblocks/res_block_3/re_lu_6/Relu", "op": "_FusedConv2D", "input": ["StatefulPartitionedCall/renju_model/resblocks/res_block_2/re_lu_5/Relu", "StatefulPartitionedCall/renju_model/resblocks/res_block_3/conv2d_6/Conv2D_weights", "StatefulPartitionedCall/renju_model/resblocks/res_block_3/conv2d_6/Conv2D_bn_offset"], "device": "/device:CPU:0", "attr": {"padding": {"s": "U0FNRQ=="}, "TArgs": {"list": {"type": ["DT_FLOAT"]}}, "data_format": {"s": "TkhXQw=="}, "T": {"type": "DT_FLOAT"}, "fused_ops": {"list": {"s": ["Qmlhc0FkZA==", "UmVsdQ=="]}}, "dilations": {"list": {"i": ["1", "1", "1", "1"]}}, "num_args": {"i": "1"}, "num_host_args": {"i": "0"}, "explicit_paddings": {"list": {}}, "epsilon": {"f": 0.0}, "use_cudnn_on_gpu": {"b": true}, "filter_format": {"s": "SFdJTw=="}, "strides": {"list": {"i": ["1", "1", "1", "1"]}}, "leakyrelu_alpha": {"f": 0.2}}}, {"name": "StatefulPartitionedCall/renju_model/resblocks/res_block_3/batch_normalization_7/FusedBatchNormV3", "op": "_FusedConv2D", "input": ["StatefulPartitionedCall/renju_model/resblocks/res_block_3/re_lu_6/Relu", "StatefulPartitionedCall/renju_model/resblocks/res_block_3/conv2d_7/Conv2D_weights", "StatefulPartitionedCall/renju_model/resblocks/res_block_3/conv2d_7/Conv2D_bn_offset"], "device": "/device:CPU:0", "attr": {"T": {"type": "DT_FLOAT"}, "data_format": {"s": "TkhXQw=="}, "fused_ops": {"list": {"s": ["Qmlhc0FkZA=="]}}, "dilations": {"list": {"i": ["1", "1", "1", "1"]}}, "num_args": {"i": "1"}, "strides": {"list": {"i": ["1", "1", "1", "1"]}}, "epsilon": {"f": 0.0}, "num_host_args": {"i": "0"}, "explicit_paddings": {"list": {}}, "use_cudnn_on_gpu": {"b": true}, "filter_format": {"s": "SFdJTw=="}, "padding": {"s": "U0FNRQ=="}, "leakyrelu_alpha": {"f": 0.2}, "TArgs": {"list": {"type": ["DT_FLOAT"]}}}}, {"name": "StatefulPartitionedCall/renju_model/resblocks/res_block_3/add", "op": "AddV2", "input": ["StatefulPartitionedCall/renju_model/resblocks/res_block_3/batch_normalization_7/FusedBatchNormV3", "StatefulPartitionedCall/renju_model/resblocks/res_block_2/re_lu_5/Relu"], "attr": {"T": {"type": "DT_FLOAT"}}}, {"name": "StatefulPartitionedCall/renju_model/resblocks/res_block_3/re_lu_7/Relu", "op": "Relu", "input": ["StatefulPartitionedCall/renju_model/resblocks/res_block_3/add"], "attr": {"T": {"type": "DT_FLOAT"}}}, {"name": "StatefulPartitionedCall/renju_model/resblocks/res_block_4/re_lu_8/Relu", "op": "_FusedConv2D", "input": ["StatefulPartitionedCall/renju_model/resblocks/res_block_3/re_lu_7/Relu", "StatefulPartitionedCall/renju_model/resblocks/res_block_4/conv2d_8/Conv2D_weights", "StatefulPartitionedCall/renju_model/resblocks/res_block_4/conv2d_8/Conv2D_bn_offset"], "device": "/device:CPU:0", "attr": {"strides": {"list": {"i": ["1", "1", "1", "1"]}}, "dilations": {"list": {"i": ["1", "1", "1", "1"]}}, "data_format": {"s": "TkhXQw=="}, "padding": {"s": "U0FNRQ=="}, "fused_ops": {"list": {"s": ["Qmlhc0FkZA==", "UmVsdQ=="]}}, "TArgs": {"list": {"type": ["DT_FLOAT"]}}, "leakyrelu_alpha": {"f": 0.2}, "num_args": {"i": "1"}, "num_host_args": {"i": "0"}, "T": {"type": "DT_FLOAT"}, "epsilon": {"f": 0.0}, "use_cudnn_on_gpu": {"b": true}, "filter_format": {"s": "SFdJTw=="}, "explicit_paddings": {"list": {}}}}, {"name": "StatefulPartitionedCall/renju_model/resblocks/res_block_4/batch_normalization_9/FusedBatchNormV3", "op": "_FusedConv2D", "input": ["StatefulPartitionedCall/renju_model/resblocks/res_block_4/re_lu_8/Relu", "StatefulPartitionedCall/renju_model/resblocks/res_block_4/conv2d_9/Conv2D_weights", "StatefulPartitionedCall/renju_model/resblocks/res_block_4/conv2d_9/Conv2D_bn_offset"], "device": "/device:CPU:0", "attr": {"dilations": {"list": {"i": ["1", "1", "1", "1"]}}, "padding": {"s": "U0FNRQ=="}, "fused_ops": {"list": {"s": ["Qmlhc0FkZA=="]}}, "num_host_args": {"i": "0"}, "filter_format": {"s": "SFdJTw=="}, "explicit_paddings": {"list": {}}, "leakyrelu_alpha": {"f": 0.2}, "num_args": {"i": "1"}, "data_format": {"s": "TkhXQw=="}, "strides": {"list": {"i": ["1", "1", "1", "1"]}}, "use_cudnn_on_gpu": {"b": true}, "T": {"type": "DT_FLOAT"}, "TArgs": {"list": {"type": ["DT_FLOAT"]}}, "epsilon": {"f": 0.0}}}, {"name": "StatefulPartitionedCall/renju_model/resblocks/res_block_4/add", "op": "AddV2", "input": ["StatefulPartitionedCall/renju_model/resblocks/res_block_4/batch_normalization_9/FusedBatchNormV3", "StatefulPartitionedCall/renju_model/resblocks/res_block_3/re_lu_7/Relu"], "attr": {"T": {"type": "DT_FLOAT"}}}, {"name": "StatefulPartitionedCall/renju_model/resblocks/res_block_4/re_lu_9/Relu", "op": "Relu", "input": ["StatefulPartitionedCall/renju_model/resblocks/res_block_4/add"], "attr": {"T": {"type": "DT_FLOAT"}}}, {"name": "StatefulPartitionedCall/renju_model/resblocks/res_block_5/re_lu_10/Relu", "op": "_FusedConv2D", "input": ["StatefulPartitionedCall/renju_model/resblocks/res_block_4/re_lu_9/Relu", "StatefulPartitionedCall/renju_model/resblocks/res_block_5/conv2d_10/Conv2D_weights", "StatefulPartitionedCall/renju_model/resblocks/res_block_5/conv2d_10/Conv2D_bn_offset"], "device": "/device:CPU:0", "attr": {"filter_format": {"s": "SFdJTw=="}, "explicit_paddings": {"list": {}}, "TArgs": {"list": {"type": ["DT_FLOAT"]}}, "leakyrelu_alpha": {"f": 0.2}, "num_args": {"i": "1"}, "epsilon": {"f": 0.0}, "strides": {"list": {"i": ["1", "1", "1", "1"]}}, "dilations": {"list": {"i": ["1", "1", "1", "1"]}}, "fused_ops": {"list": {"s": ["Qmlhc0FkZA==", "UmVsdQ=="]}}, "use_cudnn_on_gpu": {"b": true}, "padding": {"s": "U0FNRQ=="}, "T": {"type": "DT_FLOAT"}, "num_host_args": {"i": "0"}, "data_format": {"s": "TkhXQw=="}}}, {"name": "StatefulPartitionedCall/renju_model/resblocks/res_block_5/batch_normalization_11/FusedBatchNormV3", "op": "_FusedConv2D", "input": ["StatefulPartitionedCall/renju_model/resblocks/res_block_5/re_lu_10/Relu", "StatefulPartitionedCall/renju_model/resblocks/res_block_5/conv2d_11/Conv2D_weights", "StatefulPartitionedCall/renju_model/resblocks/res_block_5/conv2d_11/Conv2D_bn_offset"], "device": "/device:CPU:0", "attr": {"leakyrelu_alpha": {"f": 0.2}, "num_host_args": {"i": "0"}, "T": {"type": "DT_FLOAT"}, "filter_format": {"s": "SFdJTw=="}, "num_args": {"i": "1"}, "epsilon": {"f": 0.0}, "explicit_paddings": {"list": {}}, "use_cudnn_on_gpu": {"b": true}, "strides": {"list": {"i": ["1", "1", "1", "1"]}}, "padding": {"s": "U0FNRQ=="}, "TArgs": {"list": {"type": ["DT_FLOAT"]}}, "dilations": {"list": {"i": ["1", "1", "1", "1"]}}, "fused_ops": {"list": {"s": ["Qmlhc0FkZA=="]}}, "data_format": {"s": "TkhXQw=="}}}, {"name": "StatefulPartitionedCall/renju_model/resblocks/res_block_5/add", "op": "AddV2", "input": ["StatefulPartitionedCall/renju_model/resblocks/res_block_5/batch_normalization_11/FusedBatchNormV3", "StatefulPartitionedCall/renju_model/resblocks/res_block_4/re_lu_9/Relu"], "attr": {"T": {"type": "DT_FLOAT"}}}, {"name": "StatefulPartitionedCall/renju_model/resblocks/res_block_5/re_lu_11/Relu", "op": "Relu", "input": ["StatefulPartitionedCall/renju_model/resblocks/res_block_5/add"], "attr": {"T": {"type": "DT_FLOAT"}}}, {"name": "StatefulPartitionedCall/renju_model/resblocks/res_block_6/re_lu_12/Relu", "op": "_FusedConv2D", "input": ["StatefulPartitionedCall/renju_model/resblocks/res_block_5/re_lu_11/Relu", "StatefulPartitionedCall/renju_model/resblocks/res_block_6/conv2d_12/Conv2D_weights", "StatefulPartitionedCall/renju_model/resblocks/res_block_6/conv2d_12/Conv2D_bn_offset"], "device": "/device:CPU:0", "attr": {"num_host_args": {"i": "0"}, "epsilon": {"f": 0.0}, "padding": {"s": "U0FNRQ=="}, "TArgs": {"list": {"type": ["DT_FLOAT"]}}, "dilations": {"list": {"i": ["1", "1", "1", "1"]}}, "leakyrelu_alpha": {"f": 0.2}, "T": {"type": "DT_FLOAT"}, "data_format": {"s": "TkhXQw=="}, "num_args": {"i": "1"}, "fused_ops": {"list": {"s": ["Qmlhc0FkZA==", "UmVsdQ=="]}}, "strides": {"list": {"i": ["1", "1", "1", "1"]}}, "use_cudnn_on_gpu": {"b": true}, "filter_format": {"s": "SFdJTw=="}, "explicit_paddings": {"list": {}}}}, {"name": "StatefulPartitionedCall/renju_model/resblocks/res_block_6/batch_normalization_13/FusedBatchNormV3", "op": "_FusedConv2D", "input": ["StatefulPartitionedCall/renju_model/resblocks/res_block_6/re_lu_12/Relu", "StatefulPartitionedCall/renju_model/resblocks/res_block_6/conv2d_13/Conv2D_weights", "StatefulPartitionedCall/renju_model/resblocks/res_block_6/conv2d_13/Conv2D_bn_offset"], "device": "/device:CPU:0", "attr": {"use_cudnn_on_gpu": {"b": true}, "explicit_paddings": {"list": {}}, "num_host_args": {"i": "0"}, "dilations": {"list": {"i": ["1", "1", "1", "1"]}}, "strides": {"list": {"i": ["1", "1", "1", "1"]}}, "leakyrelu_alpha": {"f": 0.2}, "T": {"type": "DT_FLOAT"}, "epsilon": {"f": 0.0}, "padding": {"s": "U0FNRQ=="}, "fused_ops": {"list": {"s": ["Qmlhc0FkZA=="]}}, "TArgs": {"list": {"type": ["DT_FLOAT"]}}, "num_args": {"i": "1"}, "data_format": {"s": "TkhXQw=="}, "filter_format": {"s": "SFdJTw=="}}}, {"name": "StatefulPartitionedCall/renju_model/resblocks/res_block_6/add", "op": "AddV2", "input": ["StatefulPartitionedCall/renju_model/resblocks/res_block_6/batch_normalization_13/FusedBatchNormV3", "StatefulPartitionedCall/renju_model/resblocks/res_block_5/re_lu_11/Relu"], "attr": {"T": {"type": "DT_FLOAT"}}}, {"name": "StatefulPartitionedCall/renju_model/resblocks/res_block_6/re_lu_13/Relu", "op": "Relu", "input": ["StatefulPartitionedCall/renju_model/resblocks/res_block_6/add"], "attr": {"T": {"type": "DT_FLOAT"}}}, {"name": "StatefulPartitionedCall/renju_model/resblocks/res_block_7/re_lu_14/Relu", "op": "_FusedConv2D", "input": ["StatefulPartitionedCall/renju_model/resblocks/res_block_6/re_lu_13/Relu", "StatefulPartitionedCall/renju_model/resblocks/res_block_7/conv2d_14/Conv2D_weights", "StatefulPartitionedCall/renju_model/resblocks/res_block_7/conv2d_14/Conv2D_bn_offset"], "device": "/device:CPU:0", "attr": {"strides": {"list": {"i": ["1", "1", "1", "1"]}}, "dilations": {"list": {"i": ["1", "1", "1", "1"]}}, "padding": {"s": "U0FNRQ=="}, "data_format": {"s": "TkhXQw=="}, "TArgs": {"list": {"type": ["DT_FLOAT"]}}, "fused_ops": {"list": {"s": ["Qmlhc0FkZA==", "UmVsdQ=="]}}, "leakyrelu_alpha": {"f": 0.2}, "num_args": {"i": "1"}, "epsilon": {"f": 0.0}, "explicit_paddings": {"list": {}}, "num_host_args": {"i": "0"}, "T": {"type": "DT_FLOAT"}, "use_cudnn_on_gpu": {"b": true}, "filter_format": {"s": "SFdJTw=="}}}, {"name": "StatefulPartitionedCall/renju_model/resblocks/res_block_7/batch_normalization_15/FusedBatchNormV3", "op": "_FusedConv2D", "input": ["StatefulPartitionedCall/renju_model/resblocks/res_block_7/re_lu_14/Relu", "StatefulPartitionedCall/renju_model/resblocks/res_block_7/conv2d_15/Conv2D_weights", "StatefulPartitionedCall/renju_model/resblocks/res_block_7/conv2d_15/Conv2D_bn_offset"], "device": "/device:CPU:0", "attr": {"padding": {"s": "U0FNRQ=="}, "epsilon": {"f": 0.0}, "TArgs": {"list": {"type": ["DT_FLOAT"]}}, "fused_ops": {"list": {"s": ["Qmlhc0FkZA=="]}}, "filter_format": {"s": "SFdJTw=="}, "data_format": {"s": "TkhXQw=="}, "num_args": {"i": "1"}, "strides": {"list": {"i": ["1", "1", "1", "1"]}}, "use_cudnn_on_gpu": {"b": true}, "T": {"type": "DT_FLOAT"}, "explicit_paddings": {"list": {}}, "num_host_args": {"i": "0"}, "dilations": {"list": {"i": ["1", "1", "1", "1"]}}, "leakyrelu_alpha": {"f": 0.2}}}, {"name": "StatefulPartitionedCall/renju_model/resblocks/res_block_7/add", "op": "AddV2", "input": ["StatefulPartitionedCall/renju_model/resblocks/res_block_7/batch_normalization_15/FusedBatchNormV3", "StatefulPartitionedCall/renju_model/resblocks/res_block_6/re_lu_13/Relu"], "attr": {"T": {"type": "DT_FLOAT"}}}, {"name": "StatefulPartitionedCall/renju_model/resblocks/res_block_7/re_lu_15/Relu", "op": "Relu", "input": ["StatefulPartitionedCall/renju_model/resblocks/res_block_7/add"], "attr": {"T": {"type": "DT_FLOAT"}}}, {"name": "StatefulPartitionedCall/renju_model/resblocks/res_block_8/re_lu_16/Relu", "op": "_FusedConv2D", "input": ["StatefulPartitionedCall/renju_model/resblocks/res_block_7/re_lu_15/Relu", "StatefulPartitionedCall/renju_model/resblocks/res_block_8/conv2d_16/Conv2D_weights", "StatefulPartitionedCall/renju_model/resblocks/res_block_8/conv2d_16/Conv2D_bn_offset"], "device": "/device:CPU:0", "attr": {"fused_ops": {"list": {"s": ["Qmlhc0FkZA==", "UmVsdQ=="]}}, "leakyrelu_alpha": {"f": 0.2}, "T": {"type": "DT_FLOAT"}, "num_args": {"i": "1"}, "strides": {"list": {"i": ["1", "1", "1", "1"]}}, "num_host_args": {"i": "0"}, "use_cudnn_on_gpu": {"b": true}, "filter_format": {"s": "SFdJTw=="}, "epsilon": {"f": 0.0}, "explicit_paddings": {"list": {}}, "padding": {"s": "U0FNRQ=="}, "TArgs": {"list": {"type": ["DT_FLOAT"]}}, "dilations": {"list": {"i": ["1", "1", "1", "1"]}}, "data_format": {"s": "TkhXQw=="}}}, {"name": "StatefulPartitionedCall/renju_model/resblocks/res_block_8/batch_normalization_17/FusedBatchNormV3", "op": "_FusedConv2D", "input": ["StatefulPartitionedCall/renju_model/resblocks/res_block_8/re_lu_16/Relu", "StatefulPartitionedCall/renju_model/resblocks/res_block_8/conv2d_17/Conv2D_weights", "StatefulPartitionedCall/renju_model/resblocks/res_block_8/conv2d_17/Conv2D_bn_offset"], "device": "/device:CPU:0", "attr": {"dilations": {"list": {"i": ["1", "1", "1", "1"]}}, "fused_ops": {"list": {"s": ["Qmlhc0FkZA=="]}}, "leakyrelu_alpha": {"f": 0.2}, "data_format": {"s": "TkhXQw=="}, "num_args": {"i": "1"}, "filter_format": {"s": "SFdJTw=="}, "strides": {"list": {"i": ["1", "1", "1", "1"]}}, "use_cudnn_on_gpu": {"b": true}, "explicit_paddings": {"list": {}}, "num_host_args": {"i": "0"}, "epsilon": {"f": 0.0}, "padding": {"s": "U0FNRQ=="}, "TArgs": {"list": {"type": ["DT_FLOAT"]}}, "T": {"type": "DT_FLOAT"}}}, {"name": "StatefulPartitionedCall/renju_model/resblocks/res_block_8/add", "op": "AddV2", "input": ["StatefulPartitionedCall/renju_model/resblocks/res_block_8/batch_normalization_17/FusedBatchNormV3", "StatefulPartitionedCall/renju_model/resblocks/res_block_7/re_lu_15/Relu"], "attr": {"T": {"type": "DT_FLOAT"}}}, {"name": "StatefulPartitionedCall/renju_model/resblocks/res_block_8/re_lu_17/Relu", "op": "Relu", "input": ["StatefulPartitionedCall/renju_model/resblocks/res_block_8/add"], "attr": {"T": {"type": "DT_FLOAT"}}}, {"name": "StatefulPartitionedCall/renju_model/resblocks/res_block_9/re_lu_18/Relu", "op": "_FusedConv2D", "input": ["StatefulPartitionedCall/renju_model/resblocks/res_block_8/re_lu_17/Relu", "StatefulPartitionedCall/renju_model/resblocks/res_block_9/conv2d_18/Conv2D_weights", "StatefulPartitionedCall/renju_model/resblocks/res_block_9/conv2d_18/Conv2D_bn_offset"], "device": "/device:CPU:0", "attr": {"num_host_args": {"i": "0"}, "filter_format": {"s": "SFdJTw=="}, "num_args": {"i": "1"}, "dilations": {"list": {"i": ["1", "1", "1", "1"]}}, "strides": {"list": {"i": ["1", "1", "1", "1"]}}, "use_cudnn_on_gpu": {"b": true}, "padding": {"s": "U0FNRQ=="}, "epsilon": {"f": 0.0}, "T": {"type": "DT_FLOAT"}, "explicit_paddings": {"list": {}}, "TArgs": {"list": {"type": ["DT_FLOAT"]}}, "leakyrelu_alpha": {"f": 0.2}, "fused_ops": {"list": {"s": ["Qmlhc0FkZA==", "UmVsdQ=="]}}, "data_format": {"s": "TkhXQw=="}}}, {"name": "StatefulPartitionedCall/renju_model/resblocks/res_block_9/batch_normalization_19/FusedBatchNormV3", "op": "_FusedConv2D", "input": ["StatefulPartitionedCall/renju_model/resblocks/res_block_9/re_lu_18/Relu", "StatefulPartitionedCall/renju_model/resblocks/res_block_9/conv2d_19/Conv2D_weights", "StatefulPartitionedCall/renju_model/resblocks/res_block_9/conv2d_19/Conv2D_bn_offset"], "device": "/device:CPU:0", "attr": {"dilations": {"list": {"i": ["1", "1", "1", "1"]}}, "fused_ops": {"list": {"s": ["Qmlhc0FkZA=="]}}, "T": {"type": "DT_FLOAT"}, "data_format": {"s": "TkhXQw=="}, "num_args": {"i": "1"}, "filter_format": {"s": "SFdJTw=="}, "explicit_paddings": {"list": {}}, "use_cudnn_on_gpu": {"b": true}, "strides": {"list": {"i": ["1", "1", "1", "1"]}}, "num_host_args": {"i": "0"}, "epsilon": {"f": 0.0}, "padding": {"s": "U0FNRQ=="}, "leakyrelu_alpha": {"f": 0.2}, "TArgs": {"list": {"type": ["DT_FLOAT"]}}}}, {"name": "StatefulPartitionedCall/renju_model/resblocks/res_block_9/add", "op": "AddV2", "input": ["StatefulPartitionedCall/renju_model/resblocks/res_block_9/batch_normalization_19/FusedBatchNormV3", "StatefulPartitionedCall/renju_model/resblocks/res_block_8/re_lu_17/Relu"], "attr": {"T": {"type": "DT_FLOAT"}}}, {"name": "StatefulPartitionedCall/renju_model/resblocks/res_block_9/re_lu_19/Relu", "op": "Relu", "input": ["StatefulPartitionedCall/renju_model/resblocks/res_block_9/add"], "attr": {"T": {"type": "DT_FLOAT"}}}, {"name": "StatefulPartitionedCall/renju_model/resblocks/res_block_10/re_lu_20/Relu", "op": "_FusedConv2D", "input": ["StatefulPartitionedCall/renju_model/resblocks/res_block_9/re_lu_19/Relu", "StatefulPartitionedCall/renju_model/resblocks/res_block_10/conv2d_20/Conv2D_weights", "StatefulPartitionedCall/renju_model/resblocks/res_block_10/conv2d_20/Conv2D_bn_offset"], "device": "/device:CPU:0", "attr": {"fused_ops": {"list": {"s": ["Qmlhc0FkZA==", "UmVsdQ=="]}}, "strides": {"list": {"i": ["1", "1", "1", "1"]}}, "TArgs": {"list": {"type": ["DT_FLOAT"]}}, "leakyrelu_alpha": {"f": 0.2}, "padding": {"s": "U0FNRQ=="}, "num_host_args": {"i": "0"}, "data_format": {"s": "TkhXQw=="}, "dilations": {"list": {"i": ["1", "1", "1", "1"]}}, "explicit_paddings": {"list": {}}, "num_args": {"i": "1"}, "filter_format": {"s": "SFdJTw=="}, "epsilon": {"f": 0.0}, "T": {"type": "DT_FLOAT"}, "use_cudnn_on_gpu": {"b": true}}}, {"name": "StatefulPartitionedCall/renju_model/resblocks/res_block_10/batch_normalization_21/FusedBatchNormV3", "op": "_FusedConv2D", "input": ["StatefulPartitionedCall/renju_model/resblocks/res_block_10/re_lu_20/Relu", "StatefulPartitionedCall/renju_model/resblocks/res_block_10/conv2d_21/Conv2D_weights", "StatefulPartitionedCall/renju_model/resblocks/res_block_10/conv2d_21/Conv2D_bn_offset"], "device": "/device:CPU:0", "attr": {"T": {"type": "DT_FLOAT"}, "data_format": {"s": "TkhXQw=="}, "filter_format": {"s": "SFdJTw=="}, "explicit_paddings": {"list": {}}, "leakyrelu_alpha": {"f": 0.2}, "num_args": {"i": "1"}, "epsilon": {"f": 0.0}, "dilations": {"list": {"i": ["1", "1", "1", "1"]}}, "fused_ops": {"list": {"s": ["Qmlhc0FkZA=="]}}, "use_cudnn_on_gpu": {"b": true}, "TArgs": {"list": {"type": ["DT_FLOAT"]}}, "strides": {"list": {"i": ["1", "1", "1", "1"]}}, "padding": {"s": "U0FNRQ=="}, "num_host_args": {"i": "0"}}}, {"name": "StatefulPartitionedCall/renju_model/resblocks/res_block_10/add", "op": "AddV2", "input": ["StatefulPartitionedCall/renju_model/resblocks/res_block_10/batch_normalization_21/FusedBatchNormV3", "StatefulPartitionedCall/renju_model/resblocks/res_block_9/re_lu_19/Relu"], "attr": {"T": {"type": "DT_FLOAT"}}}, {"name": "StatefulPartitionedCall/renju_model/resblocks/res_block_10/re_lu_21/Relu", "op": "Relu", "input": ["StatefulPartitionedCall/renju_model/resblocks/res_block_10/add"], "attr": {"T": {"type": "DT_FLOAT"}}}, {"name": "StatefulPartitionedCall/renju_model/resblocks/res_block_11/re_lu_22/Relu", "op": "_FusedConv2D", "input": ["StatefulPartitionedCall/renju_model/resblocks/res_block_10/re_lu_21/Relu", "StatefulPartitionedCall/renju_model/resblocks/res_block_11/conv2d_22/Conv2D_weights", "StatefulPartitionedCall/renju_model/resblocks/res_block_11/conv2d_22/Conv2D_bn_offset"], "device": "/device:CPU:0", "attr": {"padding": {"s": "U0FNRQ=="}, "TArgs": {"list": {"type": ["DT_FLOAT"]}}, "filter_format": {"s": "SFdJTw=="}, "fused_ops": {"list": {"s": ["Qmlhc0FkZA==", "UmVsdQ=="]}}, "data_format": {"s": "TkhXQw=="}, "num_args": {"i": "1"}, "num_host_args": {"i": "0"}, "explicit_paddings": {"list": {}}, "use_cudnn_on_gpu": {"b": true}, "strides": {"list": {"i": ["1", "1", "1", "1"]}}, "T": {"type": "DT_FLOAT"}, "epsilon": {"f": 0.0}, "leakyrelu_alpha": {"f": 0.2}, "dilations": {"list": {"i": ["1", "1", "1", "1"]}}}}, {"name": "StatefulPartitionedCall/renju_model/resblocks/res_block_11/batch_normalization_23/FusedBatchNormV3", "op": "_FusedConv2D", "input": ["StatefulPartitionedCall/renju_model/resblocks/res_block_11/re_lu_22/Relu", "StatefulPartitionedCall/renju_model/resblocks/res_block_11/conv2d_23/Conv2D_weights", "StatefulPartitionedCall/renju_model/resblocks/res_block_11/conv2d_23/Conv2D_bn_offset"], "device": "/device:CPU:0", "attr": {"explicit_paddings": {"list": {}}, "strides": {"list": {"i": ["1", "1", "1", "1"]}}, "dilations": {"list": {"i": ["1", "1", "1", "1"]}}, "data_format": {"s": "TkhXQw=="}, "padding": {"s": "U0FNRQ=="}, "TArgs": {"list": {"type": ["DT_FLOAT"]}}, "fused_ops": {"list": {"s": ["Qmlhc0FkZA=="]}}, "leakyrelu_alpha": {"f": 0.2}, "num_host_args": {"i": "0"}, "T": {"type": "DT_FLOAT"}, "filter_format": {"s": "SFdJTw=="}, "num_args": {"i": "1"}, "epsilon": {"f": 0.0}, "use_cudnn_on_gpu": {"b": true}}}, {"name": "StatefulPartitionedCall/renju_model/resblocks/res_block_11/add", "op": "AddV2", "input": ["StatefulPartitionedCall/renju_model/resblocks/res_block_11/batch_normalization_23/FusedBatchNormV3", "StatefulPartitionedCall/renju_model/resblocks/res_block_10/re_lu_21/Relu"], "attr": {"T": {"type": "DT_FLOAT"}}}, {"name": "StatefulPartitionedCall/renju_model/resblocks/res_block_11/re_lu_23/Relu", "op": "Relu", "input": ["StatefulPartitionedCall/renju_model/resblocks/res_block_11/add"], "attr": {"T": {"type": "DT_FLOAT"}}}, {"name": "StatefulPartitionedCall/renju_model/resblocks/res_block_12/re_lu_24/Relu", "op": "_FusedConv2D", "input": ["StatefulPartitionedCall/renju_model/resblocks/res_block_11/re_lu_23/Relu", "StatefulPartitionedCall/renju_model/resblocks/res_block_12/conv2d_24/Conv2D_weights", "StatefulPartitionedCall/renju_model/resblocks/res_block_12/conv2d_24/Conv2D_bn_offset"], "device": "/device:CPU:0", "attr": {"num_host_args": {"i": "0"}, "epsilon": {"f": 0.0}, "padding": {"s": "U0FNRQ=="}, "T": {"type": "DT_FLOAT"}, "TArgs": {"list": {"type": ["DT_FLOAT"]}}, "dilations": {"list": {"i": ["1", "1", "1", "1"]}}, "leakyrelu_alpha": {"f": 0.2}, "data_format": {"s": "TkhXQw=="}, "num_args": {"i": "1"}, "filter_format": {"s": "SFdJTw=="}, "fused_ops": {"list": {"s": ["Qmlhc0FkZA==", "UmVsdQ=="]}}, "strides": {"list": {"i": ["1", "1", "1", "1"]}}, "use_cudnn_on_gpu": {"b": true}, "explicit_paddings": {"list": {}}}}, {"name": "StatefulPartitionedCall/renju_model/resblocks/res_block_12/batch_normalization_25/FusedBatchNormV3", "op": "_FusedConv2D", "input": ["StatefulPartitionedCall/renju_model/resblocks/res_block_12/re_lu_24/Relu", "StatefulPartitionedCall/renju_model/resblocks/res_block_12/conv2d_25/Conv2D_weights", "StatefulPartitionedCall/renju_model/resblocks/res_block_12/conv2d_25/Conv2D_bn_offset"], "device": "/device:CPU:0", "attr": {"data_format": {"s": "TkhXQw=="}, "num_args": {"i": "1"}, "T": {"type": "DT_FLOAT"}, "use_cudnn_on_gpu": {"b": true}, "num_host_args": {"i": "0"}, "leakyrelu_alpha": {"f": 0.2}, "strides": {"list": {"i": ["1", "1", "1", "1"]}}, "TArgs": {"list": {"type": ["DT_FLOAT"]}}, "epsilon": {"f": 0.0}, "padding": {"s": "U0FNRQ=="}, "filter_format": {"s": "SFdJTw=="}, "dilations": {"list": {"i": ["1", "1", "1", "1"]}}, "explicit_paddings": {"list": {}}, "fused_ops": {"list": {"s": ["Qmlhc0FkZA=="]}}}}, {"name": "StatefulPartitionedCall/renju_model/resblocks/res_block_12/add", "op": "AddV2", "input": ["StatefulPartitionedCall/renju_model/resblocks/res_block_12/batch_normalization_25/FusedBatchNormV3", "StatefulPartitionedCall/renju_model/resblocks/res_block_11/re_lu_23/Relu"], "attr": {"T": {"type": "DT_FLOAT"}}}, {"name": "StatefulPartitionedCall/renju_model/resblocks/res_block_12/re_lu_25/Relu", "op": "Relu", "input": ["StatefulPartitionedCall/renju_model/resblocks/res_block_12/add"], "attr": {"T": {"type": "DT_FLOAT"}}}, {"name": "StatefulPartitionedCall/renju_model/resblocks/res_block_13/re_lu_26/Relu", "op": "_FusedConv2D", "input": ["StatefulPartitionedCall/renju_model/resblocks/res_block_12/re_lu_25/Relu", "StatefulPartitionedCall/renju_model/resblocks/res_block_13/conv2d_26/Conv2D_weights", "StatefulPartitionedCall/renju_model/resblocks/res_block_13/conv2d_26/Conv2D_bn_offset"], "device": "/device:CPU:0", "attr": {"dilations": {"list": {"i": ["1", "1", "1", "1"]}}, "leakyrelu_alpha": {"f": 0.2}, "T": {"type": "DT_FLOAT"}, "data_format": {"s": "TkhXQw=="}, "num_args": {"i": "1"}, "fused_ops": {"list": {"s": ["Qmlhc0FkZA==", "UmVsdQ=="]}}, "strides": {"list": {"i": ["1", "1", "1", "1"]}}, "use_cudnn_on_gpu": {"b": true}, "filter_format": {"s": "SFdJTw=="}, "explicit_paddings": {"list": {}}, "num_host_args": {"i": "0"}, "epsilon": {"f": 0.0}, "padding": {"s": "U0FNRQ=="}, "TArgs": {"list": {"type": ["DT_FLOAT"]}}}}, {"name": "StatefulPartitionedCall/renju_model/resblocks/res_block_13/batch_normalization_27/FusedBatchNormV3", "op": "_FusedConv2D", "input": ["StatefulPartitionedCall/renju_model/resblocks/res_block_13/re_lu_26/Relu", "StatefulPartitionedCall/renju_model/resblocks/res_block_13/conv2d_27/Conv2D_weights", "StatefulPartitionedCall/renju_model/resblocks/res_block_13/conv2d_27/Conv2D_bn_offset"], "device": "/device:CPU:0", "attr": {"leakyrelu_alpha": {"f": 0.2}, "fused_ops": {"list": {"s": ["Qmlhc0FkZA=="]}}, "data_format": {"s": "TkhXQw=="}, "num_host_args": {"i": "0"}, "dilations": {"list": {"i": ["1", "1", "1", "1"]}}, "filter_format": {"s": "SFdJTw=="}, "num_args": {"i": "1"}, "strides": {"list": {"i": ["1", "1", "1", "1"]}}, "use_cudnn_on_gpu": {"b": true}, "padding": {"s": "U0FNRQ=="}, "epsilon": {"f": 0.0}, "T": {"type": "DT_FLOAT"}, "explicit_paddings": {"list": {}}, "TArgs": {"list": {"type": ["DT_FLOAT"]}}}}, {"name": "StatefulPartitionedCall/renju_model/resblocks/res_block_13/add", "op": "AddV2", "input": ["StatefulPartitionedCall/renju_model/resblocks/res_block_13/batch_normalization_27/FusedBatchNormV3", "StatefulPartitionedCall/renju_model/resblocks/res_block_12/re_lu_25/Relu"], "attr": {"T": {"type": "DT_FLOAT"}}}, {"name": "StatefulPartitionedCall/renju_model/resblocks/res_block_13/re_lu_27/Relu", "op": "Relu", "input": ["StatefulPartitionedCall/renju_model/resblocks/res_block_13/add"], "attr": {"T": {"type": "DT_FLOAT"}}}, {"name": "StatefulPartitionedCall/renju_model/resblocks/res_block_14/re_lu_28/Relu", "op": "_FusedConv2D", "input": ["StatefulPartitionedCall/renju_model/resblocks/res_block_13/re_lu_27/Relu", "StatefulPartitionedCall/renju_model/resblocks/res_block_14/conv2d_28/Conv2D_weights", "StatefulPartitionedCall/renju_model/resblocks/res_block_14/conv2d_28/Conv2D_bn_offset"], "device": "/device:CPU:0", "attr": {"leakyrelu_alpha": {"f": 0.2}, "num_args": {"i": "1"}, "num_host_args": {"i": "0"}, "use_cudnn_on_gpu": {"b": true}, "T": {"type": "DT_FLOAT"}, "filter_format": {"s": "SFdJTw=="}, "explicit_paddings": {"list": {}}, "epsilon": {"f": 0.0}, "strides": {"list": {"i": ["1", "1", "1", "1"]}}, "dilations": {"list": {"i": ["1", "1", "1", "1"]}}, "padding": {"s": "U0FNRQ=="}, "data_format": {"s": "TkhXQw=="}, "fused_ops": {"list": {"s": ["Qmlhc0FkZA==", "UmVsdQ=="]}}, "TArgs": {"list": {"type": ["DT_FLOAT"]}}}}, {"name": "StatefulPartitionedCall/renju_model/resblocks/res_block_14/batch_normalization_29/FusedBatchNormV3", "op": "_FusedConv2D", "input": ["StatefulPartitionedCall/renju_model/resblocks/res_block_14/re_lu_28/Relu", "StatefulPartitionedCall/renju_model/resblocks/res_block_14/conv2d_29/Conv2D_weights", "StatefulPartitionedCall/renju_model/resblocks/res_block_14/conv2d_29/Conv2D_bn_offset"], "device": "/device:CPU:0", "attr": {"explicit_paddings": {"list": {}}, "use_cudnn_on_gpu": {"b": true}, "strides": {"list": {"i": ["1", "1", "1", "1"]}}, "dilations": {"list": {"i": ["1", "1", "1", "1"]}}, "padding": {"s": "U0FNRQ=="}, "data_format": {"s": "TkhXQw=="}, "TArgs": {"list": {"type": ["DT_FLOAT"]}}, "fused_ops": {"list": {"s": ["Qmlhc0FkZA=="]}}, "leakyrelu_alpha": {"f": 0.2}, "epsilon": {"f": 0.0}, "num_host_args": {"i": "0"}, "T": {"type": "DT_FLOAT"}, "num_args": {"i": "1"}, "filter_format": {"s": "SFdJTw=="}}}, {"name": "StatefulPartitionedCall/renju_model/resblocks/res_block_14/add", "op": "AddV2", "input": ["StatefulPartitionedCall/renju_model/resblocks/res_block_14/batch_normalization_29/FusedBatchNormV3", "StatefulPartitionedCall/renju_model/resblocks/res_block_13/re_lu_27/Relu"], "attr": {"T": {"type": "DT_FLOAT"}}}, {"name": "StatefulPartitionedCall/renju_model/resblocks/res_block_14/re_lu_29/Relu", "op": "Relu", "input": ["StatefulPartitionedCall/renju_model/resblocks/res_block_14/add"], "attr": {"T": {"type": "DT_FLOAT"}}}, {"name": "StatefulPartitionedCall/renju_model/resblocks/res_block_15/re_lu_30/Relu", "op": "_FusedConv2D", "input": ["StatefulPartitionedCall/renju_model/resblocks/res_block_14/re_lu_29/Relu", "StatefulPartitionedCall/renju_model/resblocks/res_block_15/conv2d_30/Conv2D_weights", "StatefulPartitionedCall/renju_model/resblocks/res_block_15/conv2d_30/Conv2D_bn_offset"], "device": "/device:CPU:0", "attr": {"leakyrelu_alpha": {"f": 0.2}, "padding": {"s": "U0FNRQ=="}, "TArgs": {"list": {"type": ["DT_FLOAT"]}}, "filter_format": {"s": "SFdJTw=="}, "fused_ops": {"list": {"s": ["Qmlhc0FkZA==", "UmVsdQ=="]}}, "data_format": {"s": "TkhXQw=="}, "num_args": {"i": "1"}, "T": {"type": "DT_FLOAT"}, "strides": {"list": {"i": ["1", "1", "1", "1"]}}, "use_cudnn_on_gpu": {"b": true}, "num_host_args": {"i": "0"}, "explicit_paddings": {"list": {}}, "dilations": {"list": {"i": ["1", "1", "1", "1"]}}, "epsilon": {"f": 0.0}}}, {"name": "StatefulPartitionedCall/renju_model/resblocks/res_block_15/batch_normalization_31/FusedBatchNormV3", "op": "_FusedConv2D", "input": ["StatefulPartitionedCall/renju_model/resblocks/res_block_15/re_lu_30/Relu", "StatefulPartitionedCall/renju_model/resblocks/res_block_15/conv2d_31/Conv2D_weights", "StatefulPartitionedCall/renju_model/resblocks/res_block_15/conv2d_31/Conv2D_bn_offset"], "device": "/device:CPU:0", "attr": {"strides": {"list": {"i": ["1", "1", "1", "1"]}}, "padding": {"s": "U0FNRQ=="}, "leakyrelu_alpha": {"f": 0.2}, "fused_ops": {"list": {"s": ["Qmlhc0FkZA=="]}}, "TArgs": {"list": {"type": ["DT_FLOAT"]}}, "data_format": {"s": "TkhXQw=="}, "num_host_args": {"i": "0"}, "filter_format": {"s": "SFdJTw=="}, "dilations": {"list": {"i": ["1", "1", "1", "1"]}}, "num_args": {"i": "1"}, "epsilon": {"f": 0.0}, "use_cudnn_on_gpu": {"b": true}, "explicit_paddings": {"list": {}}, "T": {"type": "DT_FLOAT"}}}, {"name": "StatefulPartitionedCall/renju_model/resblocks/res_block_15/add", "op": "AddV2", "input": ["StatefulPartitionedCall/renju_model/resblocks/res_block_15/batch_normalization_31/FusedBatchNormV3", "StatefulPartitionedCall/renju_model/resblocks/res_block_14/re_lu_29/Relu"], "attr": {"T": {"type": "DT_FLOAT"}}}, {"name": "StatefulPartitionedCall/renju_model/resblocks/res_block_15/re_lu_31/Relu", "op": "Relu", "input": ["StatefulPartitionedCall/renju_model/resblocks/res_block_15/add"], "attr": {"T": {"type": "DT_FLOAT"}}}, {"name": "StatefulPartitionedCall/renju_model/resblocks/res_block_16/re_lu_32/Relu", "op": "_FusedConv2D", "input": ["StatefulPartitionedCall/renju_model/resblocks/res_block_15/re_lu_31/Relu", "StatefulPartitionedCall/renju_model/resblocks/res_block_16/conv2d_32/Conv2D_weights", "StatefulPartitionedCall/renju_model/resblocks/res_block_16/conv2d_32/Conv2D_bn_offset"], "device": "/device:CPU:0", "attr": {"leakyrelu_alpha": {"f": 0.2}, "TArgs": {"list": {"type": ["DT_FLOAT"]}}, "data_format": {"s": "TkhXQw=="}, "fused_ops": {"list": {"s": ["Qmlhc0FkZA==", "UmVsdQ=="]}}, "epsilon": {"f": 0.0}, "num_host_args": {"i": "0"}, "dilations": {"list": {"i": ["1", "1", "1", "1"]}}, "strides": {"list": {"i": ["1", "1", "1", "1"]}}, "filter_format": {"s": "SFdJTw=="}, "num_args": {"i": "1"}, "explicit_paddings": {"list": {}}, "use_cudnn_on_gpu": {"b": true}, "T": {"type": "DT_FLOAT"}, "padding": {"s": "U0FNRQ=="}}}, {"name": "StatefulPartitionedCall/renju_model/resblocks/res_block_16/batch_normalization_33/FusedBatchNormV3", "op": "_FusedConv2D", "input": ["StatefulPartitionedCall/renju_model/resblocks/res_block_16/re_lu_32/Relu", "StatefulPartitionedCall/renju_model/resblocks/res_block_16/conv2d_33/Conv2D_weights", "StatefulPartitionedCall/renju_model/resblocks/res_block_16/conv2d_33/Conv2D_bn_offset"], "device": "/device:CPU:0", "attr": {"filter_format": {"s": "SFdJTw=="}, "data_format": {"s": "TkhXQw=="}, "strides": {"list": {"i": ["1", "1", "1", "1"]}}, "use_cudnn_on_gpu": {"b": true}, "explicit_paddings": {"list": {}}, "T": {"type": "DT_FLOAT"}, "num_host_args": {"i": "0"}, "dilations": {"list": {"i": ["1", "1", "1", "1"]}}, "leakyrelu_alpha": {"f": 0.2}, "padding": {"s": "U0FNRQ=="}, "epsilon": {"f": 0.0}, "TArgs": {"list": {"type": ["DT_FLOAT"]}}, "fused_ops": {"list": {"s": ["Qmlhc0FkZA=="]}}, "num_args": {"i": "1"}}}, {"name": "StatefulPartitionedCall/renju_model/resblocks/res_block_16/add", "op": "AddV2", "input": ["StatefulPartitionedCall/renju_model/resblocks/res_block_16/batch_normalization_33/FusedBatchNormV3", "StatefulPartitionedCall/renju_model/resblocks/res_block_15/re_lu_31/Relu"], "attr": {"T": {"type": "DT_FLOAT"}}}, {"name": "StatefulPartitionedCall/renju_model/resblocks/res_block_16/re_lu_33/Relu", "op": "Relu", "input": ["StatefulPartitionedCall/renju_model/resblocks/res_block_16/add"], "attr": {"T": {"type": "DT_FLOAT"}}}, {"name": "StatefulPartitionedCall/renju_model/resblocks/res_block_17/re_lu_34/Relu", "op": "_FusedConv2D", "input": ["StatefulPartitionedCall/renju_model/resblocks/res_block_16/re_lu_33/Relu", "StatefulPartitionedCall/renju_model/resblocks/res_block_17/conv2d_34/Conv2D_weights", "StatefulPartitionedCall/renju_model/resblocks/res_block_17/conv2d_34/Conv2D_bn_offset"], "device": "/device:CPU:0", "attr": {"num_args": {"i": "1"}, "strides": {"list": {"i": ["1", "1", "1", "1"]}}, "padding": {"s": "U0FNRQ=="}, "explicit_paddings": {"list": {}}, "use_cudnn_on_gpu": {"b": true}, "TArgs": {"list": {"type": ["DT_FLOAT"]}}, "dilations": {"list": {"i": ["1", "1", "1", "1"]}}, "fused_ops": {"list": {"s": ["Qmlhc0FkZA==", "UmVsdQ=="]}}, "T": {"type": "DT_FLOAT"}, "data_format": {"s": "TkhXQw=="}, "num_host_args": {"i": "0"}, "filter_format": {"s": "SFdJTw=="}, "leakyrelu_alpha": {"f": 0.2}, "epsilon": {"f": 0.0}}}, {"name": "StatefulPartitionedCall/renju_model/resblocks/res_block_17/batch_normalization_35/FusedBatchNormV3", "op": "_FusedConv2D", "input": ["StatefulPartitionedCall/renju_model/resblocks/res_block_17/re_lu_34/Relu", "StatefulPartitionedCall/renju_model/resblocks/res_block_17/conv2d_35/Conv2D_weights", "StatefulPartitionedCall/renju_model/resblocks/res_block_17/conv2d_35/Conv2D_bn_offset"], "device": "/device:CPU:0", "attr": {"dilations": {"list": {"i": ["1", "1", "1", "1"]}}, "fused_ops": {"list": {"s": ["Qmlhc0FkZA=="]}}, "T": {"type": "DT_FLOAT"}, "data_format": {"s": "TkhXQw=="}, "num_host_args": {"i": "0"}, "filter_format": {"s": "SFdJTw=="}, "leakyrelu_alpha": {"f": 0.2}, "epsilon": {"f": 0.0}, "strides": {"list": {"i": ["1", "1", "1", "1"]}}, "num_args": {"i": "1"}, "padding": {"s": "U0FNRQ=="}, "explicit_paddings": {"list": {}}, "use_cudnn_on_gpu": {"b": true}, "TArgs": {"list": {"type": ["DT_FLOAT"]}}}}, {"name": "StatefulPartitionedCall/renju_model/resblocks/res_block_17/add", "op": "AddV2", "input": ["StatefulPartitionedCall/renju_model/resblocks/res_block_17/batch_normalization_35/FusedBatchNormV3", "StatefulPartitionedCall/renju_model/resblocks/res_block_16/re_lu_33/Relu"], "attr": {"T": {"type": "DT_FLOAT"}}}, {"name": "StatefulPartitionedCall/renju_model/resblocks/res_block_17/re_lu_35/Relu", "op": "Relu", "input": ["StatefulPartitionedCall/renju_model/resblocks/res_block_17/add"], "attr": {"T": {"type": "DT_FLOAT"}}}, {"name": "StatefulPartitionedCall/renju_model/resblocks/res_block_18/re_lu_36/Relu", "op": "_FusedConv2D", "input": ["StatefulPartitionedCall/renju_model/resblocks/res_block_17/re_lu_35/Relu", "StatefulPartitionedCall/renju_model/resblocks/res_block_18/conv2d_36/Conv2D_weights", "StatefulPartitionedCall/renju_model/resblocks/res_block_18/conv2d_36/Conv2D_bn_offset"], "device": "/device:CPU:0", "attr": {"filter_format": {"s": "SFdJTw=="}, "dilations": {"list": {"i": ["1", "1", "1", "1"]}}, "fused_ops": {"list": {"s": ["Qmlhc0FkZA==", "UmVsdQ=="]}}, "leakyrelu_alpha": {"f": 0.2}, "data_format": {"s": "TkhXQw=="}, "num_args": {"i": "1"}, "strides": {"list": {"i": ["1", "1", "1", "1"]}}, "num_host_args": {"i": "0"}, "use_cudnn_on_gpu": {"b": true}, "explicit_paddings": {"list": {}}, "epsilon": {"f": 0.0}, "T": {"type": "DT_FLOAT"}, "padding": {"s": "U0FNRQ=="}, "TArgs": {"list": {"type": ["DT_FLOAT"]}}}}, {"name": "StatefulPartitionedCall/renju_model/resblocks/res_block_18/batch_normalization_37/FusedBatchNormV3", "op": "_FusedConv2D", "input": ["StatefulPartitionedCall/renju_model/resblocks/res_block_18/re_lu_36/Relu", "StatefulPartitionedCall/renju_model/resblocks/res_block_18/conv2d_37/Conv2D_weights", "StatefulPartitionedCall/renju_model/resblocks/res_block_18/conv2d_37/Conv2D_bn_offset"], "device": "/device:CPU:0", "attr": {"num_host_args": {"i": "0"}, "filter_format": {"s": "SFdJTw=="}, "epsilon": {"f": 0.0}, "dilations": {"list": {"i": ["1", "1", "1", "1"]}}, "num_args": {"i": "1"}, "strides": {"list": {"i": ["1", "1", "1", "1"]}}, "padding": {"s": "U0FNRQ=="}, "T": {"type": "DT_FLOAT"}, "explicit_paddings": {"list": {}}, "use_cudnn_on_gpu": {"b": true}, "TArgs": {"list": {"type": ["DT_FLOAT"]}}, "leakyrelu_alpha": {"f": 0.2}, "fused_ops": {"list": {"s": ["Qmlhc0FkZA=="]}}, "data_format": {"s": "TkhXQw=="}}}, {"name": "StatefulPartitionedCall/renju_model/resblocks/res_block_18/add", "op": "AddV2", "input": ["StatefulPartitionedCall/renju_model/resblocks/res_block_18/batch_normalization_37/FusedBatchNormV3", "StatefulPartitionedCall/renju_model/resblocks/res_block_17/re_lu_35/Relu"], "attr": {"T": {"type": "DT_FLOAT"}}}, {"name": "StatefulPartitionedCall/renju_model/resblocks/res_block_18/re_lu_37/Relu", "op": "Relu", "input": ["StatefulPartitionedCall/renju_model/resblocks/res_block_18/add"], "attr": {"T": {"type": "DT_FLOAT"}}}, {"name": "StatefulPartitionedCall/renju_model/action_activation/Relu", "op": "_FusedConv2D", "input": ["StatefulPartitionedCall/renju_model/resblocks/res_block_18/re_lu_37/Relu", "StatefulPartitionedCall/renju_model/action_conv/Conv2D_weights", "StatefulPartitionedCall/renju_model/action_conv/Conv2D_bn_offset"], "device": "/device:CPU:0", "attr": {"padding": {"s": "VkFMSUQ="}, "leakyrelu_alpha": {"f": 0.2}, "TArgs": {"list": {"type": ["DT_FLOAT"]}}, "data_format": {"s": "TkhXQw=="}, "fused_ops": {"list": {"s": ["Qmlhc0FkZA==", "UmVsdQ=="]}}, "num_host_args": {"i": "0"}, "dilations": {"list": {"i": ["1", "1", "1", "1"]}}, "num_args": {"i": "1"}, "filter_format": {"s": "SFdJTw=="}, "epsilon": {"f": 0.0}, "strides": {"list": {"i": ["1", "1", "1", "1"]}}, "use_cudnn_on_gpu": {"b": true}, "explicit_paddings": {"list": {}}, "T": {"type": "DT_FLOAT"}}}, {"name": "StatefulPartitionedCall/renju_model/evaluation_activation/Relu", "op": "_FusedConv2D", "input": ["StatefulPartitionedCall/renju_model/resblocks/res_block_18/re_lu_37/Relu", "StatefulPartitionedCall/renju_model/evaluation_conv/Conv2D_weights", "StatefulPartitionedCall/renju_model/evaluation_conv/Conv2D_bn_offset"], "device": "/device:CPU:0", "attr": {"num_host_args": {"i": "0"}, "filter_format": {"s": "SFdJTw=="}, "dilations": {"list": {"i": ["1", "1", "1", "1"]}}, "num_args": {"i": "1"}, "epsilon": {"f": 0.0}, "T": {"type": "DT_FLOAT"}, "strides": {"list": {"i": ["1", "1", "1", "1"]}}, "use_cudnn_on_gpu": {"b": true}, "padding": {"s": "VkFMSUQ="}, "explicit_paddings": {"list": {}}, "TArgs": {"list": {"type": ["DT_FLOAT"]}}, "leakyrelu_alpha": {"f": 0.2}, "fused_ops": {"list": {"s": ["Qmlhc0FkZA==", "UmVsdQ=="]}}, "data_format": {"s": "TkhXQw=="}}}, {"name": "StatefulPartitionedCall/renju_model/action_flatten/Reshape", "op": "Reshape", "input": ["StatefulPartitionedCall/renju_model/action_activation/Relu", "StatefulPartitionedCall/renju_model/action_flatten/Const"], "attr": {"Tshape": {"type": "DT_INT32"}, "T": {"type": "DT_FLOAT"}}}, {"name": "StatefulPartitionedCall/renju_model/evaluation_flatten/Reshape", "op": "Reshape", "input": ["StatefulPartitionedCall/renju_model/evaluation_activation/Relu", "StatefulPartitionedCall/renju_model/evaluation_flatten/Const"], "attr": {"T": {"type": "DT_FLOAT"}, "Tshape": {"type": "DT_INT32"}}}, {"name": "StatefulPartitionedCall/renju_model/action_fc/BiasAdd", "op": "_FusedMatMul", "input": ["StatefulPartitionedCall/renju_model/action_flatten/Reshape", "StatefulPartitionedCall/renju_model/action_fc/MatMul/ReadVariableOp", "StatefulPartitionedCall/renju_model/action_fc/BiasAdd/ReadVariableOp"], "device": "/device:CPU:0", "attr": {"leakyrelu_alpha": {"f": 0.2}, "num_args": {"i": "1"}, "transpose_b": {"b": false}, "T": {"type": "DT_FLOAT"}, "transpose_a": {"b": false}, "epsilon": {"f": 0.0}, "fused_ops": {"list": {"s": ["Qmlhc0FkZA=="]}}}}, {"name": "StatefulPartitionedCall/renju_model/evaluation_fc1/Elu", "op": "_FusedMatMul", "input": ["StatefulPartitionedCall/renju_model/evaluation_flatten/Reshape", "StatefulPartitionedCall/renju_model/evaluation_fc1/MatMul/ReadVariableOp", "StatefulPartitionedCall/renju_model/evaluation_fc1/BiasAdd/ReadVariableOp"], "device": "/device:CPU:0", "attr": {"leakyrelu_alpha": {"f": 0.2}, "transpose_a": {"b": false}, "num_args": {"i": "1"}, "epsilon": {"f": 0.0}, "transpose_b": {"b": false}, "fused_ops": {"list": {"s": ["Qmlhc0FkZA==", "RWx1"]}}, "T": {"type": "DT_FLOAT"}}}, {"name": "StatefulPartitionedCall/renju_model/action_fc/Softmax", "op": "Softmax", "input": ["StatefulPartitionedCall/renju_model/action_fc/BiasAdd"], "attr": {"T": {"type": "DT_FLOAT"}}}, {"name": "StatefulPartitionedCall/renju_model/evaluation_fc2/BiasAdd", "op": "_FusedMatMul", "input": ["StatefulPartitionedCall/renju_model/evaluation_fc1/Elu", "StatefulPartitionedCall/renju_model/evaluation_fc2/MatMul/ReadVariableOp", "StatefulPartitionedCall/renju_model/evaluation_fc2/BiasAdd/ReadVariableOp"], "device": "/device:CPU:0", "attr": {"epsilon": {"f": 0.0}, "leakyrelu_alpha": {"f": 0.2}, "num_args": {"i": "1"}, "T": {"type": "DT_FLOAT"}, "transpose_b": {"b": false}, "fused_ops": {"list": {"s": ["Qmlhc0FkZA=="]}}, "transpose_a": {"b": false}}}, {"name": "Identity", "op": "Identity", "input": ["StatefulPartitionedCall/renju_model/action_fc/Softmax"], "attr": {"T": {"type": "DT_FLOAT"}}}, {"name": "StatefulPartitionedCall/renju_model/evaluation_fc2/Tanh", "op": "Tanh", "input": ["StatefulPartitionedCall/renju_model/evaluation_fc2/BiasAdd"], "attr": {"T": {"type": "DT_FLOAT"}}}, {"name": "Identity_1", "op": "Identity", "input": ["StatefulPartitionedCall/renju_model/evaluation_fc2/Tanh"], "attr": {"T": {"type": "DT_FLOAT"}}}], "library": {}, "versions": {"producer": 1286}}, "weightsManifest": [{"paths": ["group1-shard1of1.bin"], "weights": [{"name": "StatefulPartitionedCall/renju_model/action_flatten/Const", "shape": [2], "dtype": "int32"}, {"name": "StatefulPartitionedCall/renju_model/action_fc/MatMul/ReadVariableOp", "shape": [450, 225], "dtype": "float32", "quantization": {"dtype": "uint8", "min": -0.31379517199946383, "scale": 0.002451524781245811, "original_dtype": "float32"}}, {"name": "StatefulPartitionedCall/renju_model/action_fc/BiasAdd/ReadVariableOp", "shape": [225], "dtype": "float32", "quantization": {"dtype": "uint8", "min": -0.38423392106505, "scale": 0.001940575358914394, "original_dtype": "float32"}}, {"name": "StatefulPartitionedCall/renju_model/permute/transpose/perm", "shape": [4], "dtype": "int32"}, {"name": "StatefulPartitionedCall/renju_model/conv1/Conv2D/ReadVariableOp", "shape": [3, 3, 4, 64], "dtype": "float32", "quantization": {"dtype": "uint8", "min": -0.16215574197909413, "scale": 0.001276816865977119, "original_dtype": "float32"}}, {"name": "StatefulPartitionedCall/renju_model/conv1/BiasAdd/ReadVariableOp", "shape": [64], "dtype": "float32", "quantization": {"dtype": "uint8", "min": -0.07454597248750575, "scale": 0.0005823904100586386, "original_dtype": "float32"}}, {"name": "StatefulPartitionedCall/renju_model/evaluation_flatten/Const", "shape": [2], "dtype": "int32"}, {"name": "StatefulPartitionedCall/renju_model/evaluation_fc1/MatMul/ReadVariableOp", "shape": [225, 256], "dtype": "float32", "quantization": {"dtype": "uint8", "min": -0.13313535767443038, "scale": 0.0010086011945032605, "original_dtype": "float32"}}, {"name": "StatefulPartitionedCall/renju_model/evaluation_fc1/BiasAdd/ReadVariableOp", "shape": [256], "dtype": "float32", "quantization": {"dtype": "uint8", "min": -0.03484665636776709, "scale": 0.0002061932329453674, "original_dtype": "float32"}}, {"name": "StatefulPartitionedCall/renju_model/evaluation_fc2/MatMul/ReadVariableOp", "shape": [256, 1], "dtype": "float32", "quantization": {"dtype": "uint8", "min": -0.13879318097058466, "scale": 0.001119299846536973, "original_dtype": "float32"}}, {"name": "StatefulPartitionedCall/renju_model/evaluation_fc2/BiasAdd/ReadVariableOp", "shape": [1], "dtype": "float32", "quantization": {"dtype": "uint8", "min": -0.010883751325309277, "scale": 1.0, "original_dtype": "float32"}}, {"name": "StatefulPartitionedCall/renju_model/resblocks/res_block/conv2d/Conv2D_weights", "shape": [3, 3, 64, 64], "dtype": "float32", "quantization": {"dtype": "uint8", "min": -1.3292951677359788, "scale": 0.010225347444122913, "original_dtype": "float32"}}, {"name": "StatefulPartitionedCall/renju_model/resblocks/res_block_15/conv2d_30/Conv2D_bn_offset", "shape": [64], "dtype": "float32", "quantization": {"dtype": "uint8", "min": -2.044096881268071, "scale": 0.015723822163600548, "original_dtype": "float32"}}, {"name": "StatefulPartitionedCall/renju_model/resblocks/res_block/conv2d/Conv2D_bn_offset", "shape": [64], "dtype": "float32", "quantization": {"dtype": "uint8", "min": -0.9401727788588581, "scale": 0.009040122873642866, "original_dtype": "float32"}}, {"name": "StatefulPartitionedCall/renju_model/resblocks/res_block/conv2d_1/Conv2D_weights", "shape": [3, 3, 64, 64], "dtype": "float32", "quantization": {"dtype": "uint8", "min": -0.21163911994765786, "scale": 0.0015448110945084515, "original_dtype": "float32"}}, {"name": "StatefulPartitionedCall/renju_model/resblocks/res_block/conv2d_1/Conv2D_bn_offset", "shape": [64], "dtype": "float32", "quantization": {"dtype": "uint8", "min": -1.190390804234673, "scale": 0.008817709660997578, "original_dtype": "float32"}}, {"name": "StatefulPartitionedCall/renju_model/resblocks/res_block_1/conv2d_2/Conv2D_weights", "shape": [3, 3, 64, 64], "dtype": "float32", "quantization": {"dtype": "uint8", "min": -0.16667205819896624, "scale": 0.0013441295016045664, "original_dtype": "float32"}}, {"name": "StatefulPartitionedCall/renju_model/resblocks/res_block_15/conv2d_31/Conv2D_weights", "shape": [3, 3, 64, 64], "dtype": "float32", "quantization": {"dtype": "uint8", "min": -0.23077107597799862, "scale": 0.0018028990310781142, "original_dtype": "float32"}}, {"name": "StatefulPartitionedCall/renju_model/resblocks/res_block_1/conv2d_2/Conv2D_bn_offset", "shape": [64], "dtype": "float32", "quantization": {"dtype": "uint8", "min": -1.1005967855453491, "scale": 0.008804774284362793, "original_dtype": "float32"}}, {"name": "StatefulPartitionedCall/renju_model/resblocks/res_block_1/conv2d_3/Conv2D_weights", "shape": [3, 3, 64, 64], "dtype": "float32", "quantization": {"dtype": "uint8", "min": -0.16514260558521046, "scale": 0.0012801752370946548, "original_dtype": "float32"}}, {"name": "StatefulPartitionedCall/renju_model/resblocks/res_block_15/conv2d_31/Conv2D_bn_offset", "shape": [64], "dtype": "float32", "quantization": {"dtype": "uint8", "min": -1.635985114995171, "scale": 0.01160273131202249, "original_dtype": "float32"}}, {"name": "StatefulPartitionedCall/renju_model/resblocks/res_block_1/conv2d_3/Conv2D_bn_offset", "shape": [64], "dtype": "float32", "quantization": {"dtype": "uint8", "min": -1.1179167803596046, "scale": 0.009554844276577818, "original_dtype": "float32"}}, {"name": "StatefulPartitionedCall/renju_model/resblocks/res_block_2/conv2d_4/Conv2D_weights", "shape": [3, 3, 64, 64], "dtype": "float32", "quantization": {"dtype": "uint8", "min": -0.11948830321723339, "scale": 0.0009636153485260758, "original_dtype": "float32"}}, {"name": "StatefulPartitionedCall/renju_model/resblocks/res_block_2/conv2d_4/Conv2D_bn_offset", "shape": [64], "dtype": "float32", "quantization": {"dtype": "uint8", "min": -1.6573296546936036, "scale": 0.011589717864990235, "original_dtype": "float32"}}, {"name": "StatefulPartitionedCall/renju_model/resblocks/res_block_2/conv2d_5/Conv2D_weights", "shape": [3, 3, 64, 64], "dtype": "float32", "quantization": {"dtype": "uint8", "min": -0.19238658266908984, "scale": 0.0015641185582852832, "original_dtype": "float32"}}, {"name": "StatefulPartitionedCall/renju_model/resblocks/res_block_2/conv2d_5/Conv2D_bn_offset", "shape": [64], "dtype": "float32", "quantization": {"dtype": "uint8", "min": -1.5198436512666589, "scale": 0.010779032987706801, "original_dtype": "float32"}}, {"name": "StatefulPartitionedCall/renju_model/resblocks/res_block_3/conv2d_6/Conv2D_weights", "shape": [3, 3, 64, 64], "dtype": "float32", "quantization": {"dtype": "uint8", "min": -0.10557528821861042, "scale": 0.0008184130869659723, "original_dtype": "float32"}}, {"name": "StatefulPartitionedCall/renju_model/resblocks/res_block_16/conv2d_32/Conv2D_weights", "shape": [3, 3, 64, 64], "dtype": "float32", "quantization": {"dtype": "uint8", "min": -0.040185014509102876, "scale": 0.0003115117403806425, "original_dtype": "float32"}}, {"name": "StatefulPartitionedCall/renju_model/resblocks/res_block_3/conv2d_6/Conv2D_bn_offset", "shape": [64], "dtype": "float32", "quantization": {"dtype": "uint8", "min": -1.5512634454988967, "scale": 0.01221467279920391, "original_dtype": "float32"}}, {"name": "StatefulPartitionedCall/renju_model/resblocks/res_block_3/conv2d_7/Conv2D_weights", "shape": [3, 3, 64, 64], "dtype": "float32", "quantization": {"dtype": "uint8", "min": -0.21112261659958784, "scale": 0.0015873880947337431, "original_dtype": "float32"}}, {"name": "StatefulPartitionedCall/renju_model/resblocks/res_block_16/conv2d_32/Conv2D_bn_offset", "shape": [64], "dtype": "float32", "quantization": {"dtype": "uint8", "min": -1.9948836775387035, "scale": 0.01583241013919606, "original_dtype": "float32"}}, {"name": "StatefulPartitionedCall/renju_model/resblocks/res_block_3/conv2d_7/Conv2D_bn_offset", "shape": [64], "dtype": "float32", "quantization": {"dtype": "uint8", "min": -1.3466532464120902, "scale": 0.009618951760086359, "original_dtype": "float32"}}, {"name": "StatefulPartitionedCall/renju_model/resblocks/res_block_4/conv2d_8/Conv2D_weights", "shape": [3, 3, 64, 64], "dtype": "float32", "quantization": {"dtype": "uint8", "min": -0.11094120951259838, "scale": 0.0008404637084287756, "original_dtype": "float32"}}, {"name": "StatefulPartitionedCall/renju_model/resblocks/res_block_4/conv2d_8/Conv2D_bn_offset", "shape": [64], "dtype": "float32", "quantization": {"dtype": "uint8", "min": -1.3032081758274752, "scale": 0.010595188421361586, "original_dtype": "float32"}}, {"name": "StatefulPartitionedCall/renju_model/resblocks/res_block_4/conv2d_9/Conv2D_weights", "shape": [3, 3, 64, 64], "dtype": "float32", "quantization": {"dtype": "uint8", "min": -0.17616090710256616, "scale": 0.0013870937567131193, "original_dtype": "float32"}}, {"name": "StatefulPartitionedCall/renju_model/resblocks/res_block_16/conv2d_33/Conv2D_weights", "shape": [3, 3, 64, 64], "dtype": "float32", "quantization": {"dtype": "uint8", "min": -0.21672735652502845, "scale": 0.0017911351778927972, "original_dtype": "float32"}}, {"name": "StatefulPartitionedCall/renju_model/resblocks/res_block_4/conv2d_9/Conv2D_bn_offset", "shape": [64], "dtype": "float32", "quantization": {"dtype": "uint8", "min": -1.1897892643423642, "scale": 0.008621661335814233, "original_dtype": "float32"}}, {"name": "StatefulPartitionedCall/renju_model/resblocks/res_block_5/conv2d_10/Conv2D_weights", "shape": [3, 3, 64, 64], "dtype": "float32", "quantization": {"dtype": "uint8", "min": -0.07826977617600385, "scale": 0.000652248134800032, "original_dtype": "float32"}}, {"name": "StatefulPartitionedCall/renju_model/resblocks/res_block_5/conv2d_10/Conv2D_bn_offset", "shape": [64], "dtype": "float32", "quantization": {"dtype": "uint8", "min": -1.4763409483666514, "scale": 0.013064964144837623, "original_dtype": "float32"}}, {"name": "StatefulPartitionedCall/renju_model/resblocks/res_block_16/conv2d_33/Conv2D_bn_offset", "shape": [64], "dtype": "float32", "quantization": {"dtype": "uint8", "min": -2.480841448727776, "scale": 0.015701528156504913, "original_dtype": "float32"}}, {"name": "StatefulPartitionedCall/renju_model/resblocks/res_block_5/conv2d_11/Conv2D_weights", "shape": [3, 3, 64, 64], "dtype": "float32", "quantization": {"dtype": "uint8", "min": -0.20170488778282614, "scale": 0.0015280673316880769, "original_dtype": "float32"}}, {"name": "StatefulPartitionedCall/renju_model/resblocks/res_block_5/conv2d_11/Conv2D_bn_offset", "shape": [64], "dtype": "float32", "quantization": {"dtype": "uint8", "min": -1.159026200163598, "scale": 0.008649449254952224, "original_dtype": "float32"}}, {"name": "StatefulPartitionedCall/renju_model/resblocks/res_block_6/conv2d_12/Conv2D_weights", "shape": [3, 3, 64, 64], "dtype": "float32", "quantization": {"dtype": "uint8", "min": -0.09030358861474429, "scale": 0.0006841180955662446, "original_dtype": "float32"}}, {"name": "StatefulPartitionedCall/renju_model/resblocks/res_block_6/conv2d_12/Conv2D_bn_offset", "shape": [64], "dtype": "float32", "quantization": {"dtype": "uint8", "min": -1.7012076279696295, "scale": 0.01454023613649256, "original_dtype": "float32"}}, {"name": "StatefulPartitionedCall/renju_model/resblocks/res_block_6/conv2d_13/Conv2D_weights", "shape": [3, 3, 64, 64], "dtype": "float32", "quantization": {"dtype": "uint8", "min": -0.20527266053592458, "scale": 0.0017106055044660382, "original_dtype": "float32"}}, {"name": "StatefulPartitionedCall/renju_model/resblocks/res_block_17/conv2d_34/Conv2D_weights", "shape": [3, 3, 64, 64], "dtype": "float32", "quantization": {"dtype": "uint8", "min": -0.03668126148336074, "scale": 0.00029581662486581243, "original_dtype": "float32"}}, {"name": "StatefulPartitionedCall/renju_model/resblocks/res_block_6/conv2d_13/Conv2D_bn_offset", "shape": [64], "dtype": "float32", "quantization": {"dtype": "uint8", "min": -1.6529167806400973, "scale": 0.010946468745960908, "original_dtype": "float32"}}, {"name": "StatefulPartitionedCall/renju_model/resblocks/res_block_7/conv2d_14/Conv2D_weights", "shape": [3, 3, 64, 64], "dtype": "float32", "quantization": {"dtype": "uint8", "min": -0.11756741562310387, "scale": 0.0007997783375721352, "original_dtype": "float32"}}, {"name": "StatefulPartitionedCall/renju_model/resblocks/res_block_7/conv2d_14/Conv2D_bn_offset", "shape": [64], "dtype": "float32", "quantization": {"dtype": "uint8", "min": -1.7652448808445649, "scale": 0.014351584397110284, "original_dtype": "float32"}}, {"name": "StatefulPartitionedCall/renju_model/resblocks/res_block_17/conv2d_34/Conv2D_bn_offset", "shape": [64], "dtype": "float32", "quantization": {"dtype": "uint8", "min": -2.091847453397863, "scale": 0.015728176341337316, "original_dtype": "float32"}}, {"name": "StatefulPartitionedCall/renju_model/resblocks/res_block_7/conv2d_15/Conv2D_weights", "shape": [3, 3, 64, 64], "dtype": "float32", "quantization": {"dtype": "uint8", "min": -0.2500974844483768, "scale": 0.0018946779124877032, "original_dtype": "float32"}}, {"name": "StatefulPartitionedCall/renju_model/evaluation_conv/Conv2D_weights", "shape": [1, 1, 64, 1], "dtype": "float32", "quantization": {"dtype": "uint8", "min": -0.020511915753869448, "scale": 0.00014244385940187116, "original_dtype": "float32"}}, {"name": "StatefulPartitionedCall/renju_model/resblocks/res_block_7/conv2d_15/Conv2D_bn_offset", "shape": [64], "dtype": "float32", "quantization": {"dtype": "uint8", "min": -1.0933117200346554, "scale": 0.00809860533359004, "original_dtype": "float32"}}, {"name": "StatefulPartitionedCall/renju_model/resblocks/res_block_8/conv2d_16/Conv2D_weights", "shape": [3, 3, 64, 64], "dtype": "float32", "quantization": {"dtype": "uint8", "min": -0.07185646073490964, "scale": 0.0005362422442903705, "original_dtype": "float32"}}, {"name": "StatefulPartitionedCall/renju_model/resblocks/res_block_8/conv2d_16/Conv2D_bn_offset", "shape": [64], "dtype": "float32", "quantization": {"dtype": "uint8", "min": -1.4380266699136472, "scale": 0.01272589973374909, "original_dtype": "float32"}}, {"name": "StatefulPartitionedCall/renju_model/resblocks/res_block_17/conv2d_35/Conv2D_weights", "shape": [3, 3, 64, 64], "dtype": "float32", "quantization": {"dtype": "uint8", "min": -0.27021499989079495, "scale": 0.0020165298499313054, "original_dtype": "float32"}}, {"name": "StatefulPartitionedCall/renju_model/resblocks/res_block_8/conv2d_17/Conv2D_weights", "shape": [3, 3, 64, 64], "dtype": "float32", "quantization": {"dtype": "uint8", "min": -0.2564366167666865, "scale": 0.0018316901197620466, "original_dtype": "float32"}}, {"name": "StatefulPartitionedCall/renju_model/resblocks/res_block_8/conv2d_17/Conv2D_bn_offset", "shape": [64], "dtype": "float32", "quantization": {"dtype": "uint8", "min": -1.422649388219796, "scale": 0.011381195105758368, "original_dtype": "float32"}}, {"name": "StatefulPartitionedCall/renju_model/resblocks/res_block_9/conv2d_18/Conv2D_weights", "shape": [3, 3, 64, 64], "dtype": "float32", "quantization": {"dtype": "uint8", "min": -0.06951760310752719, "scale": 0.0005431062742775562, "original_dtype": "float32"}}, {"name": "StatefulPartitionedCall/renju_model/resblocks/res_block_17/conv2d_35/Conv2D_bn_offset", "shape": [64], "dtype": "float32", "quantization": {"dtype": "uint8", "min": -1.6998346066942402, "scale": 0.015177094702627144, "original_dtype": "float32"}}, {"name": "StatefulPartitionedCall/renju_model/resblocks/res_block_9/conv2d_18/Conv2D_bn_offset", "shape": [64], "dtype": "float32", "quantization": {"dtype": "uint8", "min": -1.1499336467069738, "scale": 0.010267264702740838, "original_dtype": "float32"}}, {"name": "StatefulPartitionedCall/renju_model/resblocks/res_block_9/conv2d_19/Conv2D_weights", "shape": [3, 3, 64, 64], "dtype": "float32", "quantization": {"dtype": "uint8", "min": -0.2432900826136271, "scale": 0.00178889766627667, "original_dtype": "float32"}}, {"name": "StatefulPartitionedCall/renju_model/resblocks/res_block_9/conv2d_19/Conv2D_bn_offset", "shape": [64], "dtype": "float32", "quantization": {"dtype": "uint8", "min": -1.4626152894076179, "scale": 0.010373158080905092, "original_dtype": "float32"}}, {"name": "StatefulPartitionedCall/renju_model/resblocks/res_block_10/conv2d_20/Conv2D_weights", "shape": [3, 3, 64, 64], "dtype": "float32", "quantization": {"dtype": "uint8", "min": -0.06384321959579692, "scale": 0.0005066922190142613, "original_dtype": "float32"}}, {"name": "StatefulPartitionedCall/renju_model/resblocks/res_block_10/conv2d_20/Conv2D_bn_offset", "shape": [64], "dtype": "float32", "quantization": {"dtype": "uint8", "min": -1.4825173845478132, "scale": 0.01425497485142128, "original_dtype": "float32"}}, {"name": "StatefulPartitionedCall/renju_model/resblocks/res_block_18/conv2d_36/Conv2D_weights", "shape": [3, 3, 64, 64], "dtype": "float32", "quantization": {"dtype": "uint8", "min": -0.03278802168719908, "scale": 0.0002581733991118038, "original_dtype": "float32"}}, {"name": "StatefulPartitionedCall/renju_model/resblocks/res_block_10/conv2d_21/Conv2D_weights", "shape": [3, 3, 64, 64], "dtype": "float32", "quantization": {"dtype": "uint8", "min": -0.2154524424496819, "scale": 0.0017516458735746495, "original_dtype": "float32"}}, {"name": "StatefulPartitionedCall/renju_model/evaluation_conv/Conv2D_bn_offset", "shape": [1], "dtype": "float32", "quantization": {"dtype": "uint8", "min": 0.06240271031856537, "scale": 1.0, "original_dtype": "float32"}}, {"name": "StatefulPartitionedCall/renju_model/resblocks/res_block_10/conv2d_21/Conv2D_bn_offset", "shape": [64], "dtype": "float32", "quantization": {"dtype": "uint8", "min": -1.569145505101073, "scale": 0.010391692086762072, "original_dtype": "float32"}}, {"name": "StatefulPartitionedCall/renju_model/resblocks/res_block_11/conv2d_22/Conv2D_weights", "shape": [3, 3, 64, 64], "dtype": "float32", "quantization": {"dtype": "uint8", "min": -0.06361482540766399, "scale": 0.00046775606917399986, "original_dtype": "float32"}}, {"name": "StatefulPartitionedCall/renju_model/resblocks/res_block_18/conv2d_36/Conv2D_bn_offset", "shape": [64], "dtype": "float32", "quantization": {"dtype": "uint8", "min": -1.8233098899616915, "scale": 0.013212390506968779, "original_dtype": "float32"}}, {"name": "StatefulPartitionedCall/renju_model/resblocks/res_block_11/conv2d_22/Conv2D_bn_offset", "shape": [64], "dtype": "float32", "quantization": {"dtype": "uint8", "min": -1.582566871362574, "scale": 0.011722717565648697, "original_dtype": "float32"}}, {"name": "StatefulPartitionedCall/renju_model/resblocks/res_block_11/conv2d_23/Conv2D_weights", "shape": [3, 3, 64, 64], "dtype": "float32", "quantization": {"dtype": "uint8", "min": -0.20316105286280314, "scale": 0.0016383955876032512, "original_dtype": "float32"}}, {"name": "StatefulPartitionedCall/renju_model/resblocks/res_block_11/conv2d_23/Conv2D_bn_offset", "shape": [64], "dtype": "float32", "quantization": {"dtype": "uint8", "min": -1.5951619036057414, "scale": 0.0112335345324348, "original_dtype": "float32"}}, {"name": "StatefulPartitionedCall/renju_model/resblocks/res_block_12/conv2d_24/Conv2D_weights", "shape": [3, 3, 64, 64], "dtype": "float32", "quantization": {"dtype": "uint8", "min": -0.059092481171383576, "scale": 0.000447670311904421, "original_dtype": "float32"}}, {"name": "StatefulPartitionedCall/renju_model/resblocks/res_block_18/conv2d_37/Conv2D_weights", "shape": [3, 3, 64, 64], "dtype": "float32", "quantization": {"dtype": "uint8", "min": -0.19337553878625233, "scale": 0.0016250045276155658, "original_dtype": "float32"}}, {"name": "StatefulPartitionedCall/renju_model/resblocks/res_block_12/conv2d_24/Conv2D_bn_offset", "shape": [64], "dtype": "float32", "quantization": {"dtype": "uint8", "min": -1.6131291417514577, "scale": 0.010973667630962297, "original_dtype": "float32"}}, {"name": "StatefulPartitionedCall/renju_model/resblocks/res_block_12/conv2d_25/Conv2D_weights", "shape": [3, 3, 64, 64], "dtype": "float32", "quantization": {"dtype": "uint8", "min": -0.21966739133292554, "scale": 0.001729664498684453, "original_dtype": "float32"}}, {"name": "StatefulPartitionedCall/renju_model/resblocks/res_block_18/conv2d_37/Conv2D_bn_offset", "shape": [64], "dtype": "float32", "quantization": {"dtype": "uint8", "min": -1.1455890131931679, "scale": 0.008949914165571624, "original_dtype": "float32"}}, {"name": "StatefulPartitionedCall/renju_model/resblocks/res_block_12/conv2d_25/Conv2D_bn_offset", "shape": [64], "dtype": "float32", "quantization": {"dtype": "uint8", "min": -1.2053704355277268, "scale": 0.009416956527560366, "original_dtype": "float32"}}, {"name": "StatefulPartitionedCall/renju_model/resblocks/res_block_13/conv2d_26/Conv2D_weights", "shape": [3, 3, 64, 64], "dtype": "float32", "quantization": {"dtype": "uint8", "min": -0.04670088089564268, "scale": 0.0003859576933524188, "original_dtype": "float32"}}, {"name": "StatefulPartitionedCall/renju_model/resblocks/res_block_13/conv2d_26/Conv2D_bn_offset", "shape": [64], "dtype": "float32", "quantization": {"dtype": "uint8", "min": -1.9780300364774814, "scale": 0.015215615665211396, "original_dtype": "float32"}}, {"name": "StatefulPartitionedCall/renju_model/resblocks/res_block_13/conv2d_27/Conv2D_weights", "shape": [3, 3, 64, 64], "dtype": "float32", "quantization": {"dtype": "uint8", "min": -0.23008716421968797, "scale": 0.0017836214280595967, "original_dtype": "float32"}}, {"name": "StatefulPartitionedCall/renju_model/resblocks/res_block_13/conv2d_27/Conv2D_bn_offset", "shape": [64], "dtype": "float32", "quantization": {"dtype": "uint8", "min": -1.7228254622104122, "scale": 0.012394427785686418, "original_dtype": "float32"}}, {"name": "StatefulPartitionedCall/renju_model/resblocks/res_block_14/conv2d_28/Conv2D_weights", "shape": [3, 3, 64, 64], "dtype": "float32", "quantization": {"dtype": "uint8", "min": -0.04691722967168865, "scale": 0.00034753503460510106, "original_dtype": "float32"}}, {"name": "StatefulPartitionedCall/renju_model/action_conv/Conv2D_weights", "shape": [1, 1, 64, 2], "dtype": "float32", "quantization": {"dtype": "uint8", "min": -0.04284216890148088, "scale": 0.0003455013621087168, "original_dtype": "float32"}}, {"name": "StatefulPartitionedCall/renju_model/resblocks/res_block_14/conv2d_28/Conv2D_bn_offset", "shape": [64], "dtype": "float32", "quantization": {"dtype": "uint8", "min": -1.986686138078278, "scale": 0.015520985453736548, "original_dtype": "float32"}}, {"name": "StatefulPartitionedCall/renju_model/resblocks/res_block_14/conv2d_29/Conv2D_weights", "shape": [3, 3, 64, 64], "dtype": "float32", "quantization": {"dtype": "uint8", "min": -0.25534551517636167, "scale": 0.0019641962705873976, "original_dtype": "float32"}}, {"name": "StatefulPartitionedCall/renju_model/action_conv/Conv2D_bn_offset", "shape": [2], "dtype": "float32", "quantization": {"dtype": "uint8", "min": 0.3319837749004364, "scale": 0.00039674090404136507, "original_dtype": "float32"}}, {"name": "StatefulPartitionedCall/renju_model/resblocks/res_block_14/conv2d_29/Conv2D_bn_offset", "shape": [64], "dtype": "float32", "quantization": {"dtype": "uint8", "min": -1.6112089886384853, "scale": 0.010133389865650851, "original_dtype": "float32"}}, {"name": "StatefulPartitionedCall/renju_model/resblocks/res_block_15/conv2d_30/Conv2D_weights", "shape": [3, 3, 64, 64], "dtype": "float32", "quantization": {"dtype": "uint8", "min": -0.044949668090717466, "scale": 0.0003354452842590856, "original_dtype": "float32"}}]}]}